fashion_mnist_model.npz (npz, 448686 bytes, 7 tensors)

biases_0 f8 [784]
000000 00 00 00 00 00 00 00 00 00 00 00 00 00 00 00 00
       0.0 0.0
000010 00 00 00 00 00 00 00 00 00 00 00 00 00 00 00 00
       0.0 0.0
000020 00 00 00 00 00 00 00 00 00 00 00 00 00 00 00 00
       0.0 0.0
000030 00 00 00 00 00 00 00 00 00 00 00 00 00 00 00 00
       0.0 0.0
000040 00 00 00 00 00 00 00 00 00 00 00 00 00 00 00 00
       0.0 0.0
000050 00 00 00 00 00 00 00 00 00 00 00 00 00 00 00 00
       0.0 0.0
000060 00 00 00 00 00 00 00 00 00 00 00 00 00 00 00 00
       0.0 0.0
000070 00 00 00 00 00 00 00 00 00 00 00 00 00 00 00 00
       0.0 0.0
000080 00 00 00 00 00 00 00 00 00 00 00 00 00 00 00 00
       0.0 0.0
000090 00 00 00 00 00 00 00 00 00 00 00 00 00 00 00 00
       0.0 0.0
0000a0 00 00 00 00 00 00 00 00 00 00 00 00 00 00 00 00
       0.0 0.0
0000b0 00 00 00 00 00 00 00 00 00 00 00 00 00 00 00 00
       0.0 0.0
0000c0 00 00 00 00 00 00 00 00 00 00 00 00 00 00 00 00
       0.0 0.0
0000d0 00 00 00 00 00 00 00 00 00 00 00 00 00 00 00 00
       0.0 0.0
0000e0 00 00 00 00 00 00 00 00 00 00 00 00 00 00 00 00
       0.0 0.0
0000f0 00 00 00 00 00 00 00 00 00 00 00 00 00 00 00 00
       0.0 0.0
000100 00 00 00 00 00 00 00 00 00 00 00 00 00 00 00 00
       0.0 0.0
000110 00 00 00 00 00 00 00 00 00 00 00 00 00 00 00 00
       0.0 0.0
000120 00 00 00 00 00 00 00 00 00 00 00 00 00 00 00 00
       0.0 0.0
000130 00 00 00 00 00 00 00 00 00 00 00 00 00 00 00 00
       0.0 0.0
000140 00 00 00 00 00 00 00 00 00 00 00 00 00 00 00 00
       0.0 0.0
000150 00 00 00 00 00 00 00 00 00 00 00 00 00 00 00 00
       0.0 0.0
000160 00 00 00 00 00 00 00 00 00 00 00 00 00 00 00 00
       0.0 0.0
000170 00 00 00 00 00 00 00 00 00 00 00 00 00 00 00 00
       0.0 0.0
000180 00 00 00 00 00 00 00 00 00 00 00 00 00 00 00 00
       0.0 0.0
000190 00 00 00 00 00 00 00 00 00 00 00 00 00 00 00 00
       0.0 0.0
0001a0 00 00 00 00 00 00 00 00 00 00 00 00 00 00 00 00
       0.0 0.0
0001b0 00 00 00 00 00 00 00 00 00 00 00 00 00 00 00 00
       0.0 0.0
0001c0 00 00 00 00 00 00 00 00 00 00 00 00 00 00 00 00
       0.0 0.0
0001d0 00 00 00 00 00 00 00 00 00 00 00 00 00 00 00 00
       0.0 0.0
0001e0 00 00 00 00 00 00 00 00 00 00 00 00 00 00 00 00
       0.0 0.0
0001f0 00 00 00 00 00 00 00 00 00 00 00 00 00 00 00 00
       0.0 0.0
000200 00 00 00 00 00 00 00 00 00 00 00 00 00 00 00 00
       0.0 0.0
000210 00 00 00 00 00 00 00 00 00 00 00 00 00 00 00 00
       0.0 0.0
000220 00 00 00 00 00 00 00 00 00 00 00 00 00 00 00 00
       0.0 0.0
000230 00 00 00 00 00 00 00 00 00 00 00 00 00 00 00 00
       0.0 0.0
000240 00 00 00 00 00 00 00 00 00 00 00 00 00 00 00 00
       0.0 0.0
000250 00 00 00 00 00 00 00 00 00 00 00 00 00 00 00 00
       0.0 0.0
000260 00 00 00 00 00 00 00 00 00 00 00 00 00 00 00 00
       0.0 0.0
000270 00 00 00 00 00 00 00 00 00 00 00 00 00 00 00 00
       0.0 0.0
000280 00 00 00 00 00 00 00 00 00 00 00 00 00 00 00 00
       0.0 0.0
000290 00 00 00 00 00 00 00 00 00 00 00 00 00 00 00 00
       0.0 0.0
0002a0 00 00 00 00 00 00 00 00 00 00 00 00 00 00 00 00
       0.0 0.0
0002b0 00 00 00 00 00 00 00 00 00 00 00 00 00 00 00 00
       0.0 0.0
0002c0 00 00 00 00 00 00 00 00 00 00 00 00 00 00 00 00
       0.0 0.0
0002d0 00 00 00 00 00 00 00 00 00 00 00 00 00 00 00 00
       0.0 0.0
0002e0 00 00 00 00 00 00 00 00 00 00 00 00 00 00 00 00
       0.0 0.0
0002f0 00 00 00 00 00 00 00 00 00 00 00 00 00 00 00 00
       0.0 0.0
000300 00 00 00 00 00 00 00 00 00 00 00 00 00 00 00 00
       0.0 0.0
000310 00 00 00 00 00 00 00 00 00 00 00 00 00 00 00 00
       0.0 0.0
000320 00 00 00 00 00 00 00 00 00 00 00 00 00 00 00 00
       0.0 0.0
000330 00 00 00 00 00 00 00 00 00 00 00 00 00 00 00 00
       0.0 0.0
000340 00 00 00 00 00 00 00 00 00 00 00 00 00 00 00 00
       0.0 0.0
000350 00 00 00 00 00 00 00 00 00 00 00 00 00 00 00 00
       0.0 0.0
000360 00 00 00 00 00 00 00 00 00 00 00 00 00 00 00 00
       0.0 0.0
000370 00 00 00 00 00 00 00 00 00 00 00 00 00 00 00 00
       0.0 0.0
000380 00 00 00 00 00 00 00 00 00 00 00 00 00 00 00 00
       0.0 0.0
000390 00 00 00 00 00 00 00 00 00 00 00 00 00 00 00 00
       0.0 0.0
0003a0 00 00 00 00 00 00 00 00 00 00 00 00 00 00 00 00
       0.0 0.0
0003b0 00 00 00 00 00 00 00 00 00 00 00 00 00 00 00 00
       0.0 0.0
0003c0 00 00 00 00 00 00 00 00 00 00 00 00 00 00 00 00
       0.0 0.0
0003d0 00 00 00 00 00 00 00 00 00 00 00 00 00 00 00 00
       0.0 0.0
0003e0 00 00 00 00 00 00 00 00 00 00 00 00 00 00 00 00
       0.0 0.0
0003f0 00 00 00 00 00 00 00 00 00 00 00 00 00 00 00 00
       0.0 0.0
000400 00 00 00 00 00 00 00 00 00 00 00 00 00 00 00 00
       0.0 0.0
000410 00 00 00 00 00 00 00 00 00 00 00 00 00 00 00 00
       0.0 0.0
000420 00 00 00 00 00 00 00 00 00 00 00 00 00 00 00 00
       0.0 0.0
000430 00 00 00 00 00 00 00 00 00 00 00 00 00 00 00 00
       0.0 0.0
000440 00 00 00 00 00 00 00 00 00 00 00 00 00 00 00 00
       0.0 0.0
000450 00 00 00 00 00 00 00 00 00 00 00 00 00 00 00 00
       0.0 0.0
000460 00 00 00 00 00 00 00 00 00 00 00 00 00 00 00 00
       0.0 0.0
000470 00 00 00 00 00 00 00 00 00 00 00 00 00 00 00 00
       0.0 0.0
000480 00 00 00 00 00 00 00 00 00 00 00 00 00 00 00 00
       0.0 0.0
000490 00 00 00 00 00 00 00 00 00 00 00 00 00 00 00 00
       0.0 0.0
0004a0 00 00 00 00 00 00 00 00 00 00 00 00 00 00 00 00
       0.0 0.0
0004b0 00 00 00 00 00 00 00 00 00 00 00 00 00 00 00 00
       0.0 0.0
0004c0 00 00 00 00 00 00 00 00 00 00 00 00 00 00 00 00
       0.0 0.0
0004d0 00 00 00 00 00 00 00 00 00 00 00 00 00 00 00 00
       0.0 0.0
0004e0 00 00 00 00 00 00 00 00 00 00 00 00 00 00 00 00
       0.0 0.0
0004f0 00 00 00 00 00 00 00 00 00 00 00 00 00 00 00 00
       0.0 0.0
000500 00 00 00 00 00 00 00 00 00 00 00 00 00 00 00 00
       0.0 0.0
000510 00 00 00 00 00 00 00 00 00 00 00 00 00 00 00 00
       0.0 0.0
000520 00 00 00 00 00 00 00 00 00 00 00 00 00 00 00 00
       0.0 0.0
000530 00 00 00 00 00 00 00 00 00 00 00 00 00 00 00 00
       0.0 0.0
000540 00 00 00 00 00 00 00 00 00 00 00 00 00 00 00 00
       0.0 0.0
000550 00 00 00 00 00 00 00 00 00 00 00 00 00 00 00 00
       0.0 0.0
000560 00 00 00 00 00 00 00 00 00 00 00 00 00 00 00 00
       0.0 0.0
000570 00 00 00 00 00 00 00 00 00 00 00 00 00 00 00 00
       0.0 0.0
000580 00 00 00 00 00 00 00 00 00 00 00 00 00 00 00 00
       0.0 0.0
000590 00 00 00 00 00 00 00 00 00 00 00 00 00 00 00 00
       0.0 0.0
0005a0 00 00 00 00 00 00 00 00 00 00 00 00 00 00 00 00
       0.0 0.0
0005b0 00 00 00 00 00 00 00 00 00 00 00 00 00 00 00 00
       0.0 0.0
0005c0 00 00 00 00 00 00 00 00 00 00 00 00 00 00 00 00
       0.0 0.0
0005d0 00 00 00 00 00 00 00 00 00 00 00 00 00 00 00 00
       0.0 0.0
0005e0 00 00 00 00 00 00 00 00 00 00 00 00 00 00 00 00
       0.0 0.0
0005f0 00 00 00 00 00 00 00 00 00 00 00 00 00 00 00 00
       0.0 0.0
000600 00 00 00 00 00 00 00 00 00 00 00 00 00 00 00 00
       0.0 0.0
000610 00 00 00 00 00 00 00 00 00 00 00 00 00 00 00 00
       0.0 0.0
000620 00 00 00 00 00 00 00 00 00 00 00 00 00 00 00 00
       0.0 0.0
000630 00 00 00 00 00 00 00 00 00 00 00 00 00 00 00 00
       0.0 0.0
000640 00 00 00 00 00 00 00 00 00 00 00 00 00 00 00 00
       0.0 0.0
000650 00 00 00 00 00 00 00 00 00 00 00 00 00 00 00 00
       0.0 0.0
000660 00 00 00 00 00 00 00 00 00 00 00 00 00 00 00 00
       0.0 0.0
000670 00 00 00 00 00 00 00 00 00 00 00 00 00 00 00 00
       0.0 0.0
000680 00 00 00 00 00 00 00 00 00 00 00 00 00 00 00 00
       0.0 0.0
000690 00 00 00 00 00 00 00 00 00 00 00 00 00 00 00 00
       0.0 0.0
0006a0 00 00 00 00 00 00 00 00 00 00 00 00 00 00 00 00
       0.0 0.0
0006b0 00 00 00 00 00 00 00 00 00 00 00 00 00 00 00 00
       0.0 0.0
0006c0 00 00 00 00 00 00 00 00 00 00 00 00 00 00 00 00
       0.0 0.0
0006d0 00 00 00 00 00 00 00 00 00 00 00 00 00 00 00 00
       0.0 0.0
0006e0 00 00 00 00 00 00 00 00 00 00 00 00 00 00 00 00
       0.0 0.0
0006f0 00 00 00 00 00 00 00 00 00 00 00 00 00 00 00 00
       0.0 0.0
000700 00 00 00 00 00 00 00 00 00 00 00 00 00 00 00 00
       0.0 0.0
000710 00 00 00 00 00 00 00 00 00 00 00 00 00 00 00 00
       0.0 0.0
000720 00 00 00 00 00 00 00 00 00 00 00 00 00 00 00 00
       0.0 0.0
000730 00 00 00 00 00 00 00 00 00 00 00 00 00 00 00 00
       0.0 0.0
000740 00 00 00 00 00 00 00 00 00 00 00 00 00 00 00 00
       0.0 0.0
000750 00 00 00 00 00 00 00 00 00 00 00 00 00 00 00 00
       0.0 0.0
000760 00 00 00 00 00 00 00 00 00 00 00 00 00 00 00 00
       0.0 0.0
000770 00 00 00 00 00 00 00 00 00 00 00 00 00 00 00 00
       0.0 0.0
000780 00 00 00 00 00 00 00 00 00 00 00 00 00 00 00 00
       0.0 0.0
000790 00 00 00 00 00 00 00 00 00 00 00 00 00 00 00 00
       0.0 0.0
0007a0 00 00 00 00 00 00 00 00 00 00 00 00 00 00 00 00
       0.0 0.0
0007b0 00 00 00 00 00 00 00 00 00 00 00 00 00 00 00 00
       0.0 0.0
0007c0 00 00 00 00 00 00 00 00 00 00 00 00 00 00 00 00
       0.0 0.0
0007d0 00 00 00 00 00 00 00 00 00 00 00 00 00 00 00 00
       0.0 0.0
0007e0 00 00 00 00 00 00 00 00 00 00 00 00 00 00 00 00
       0.0 0.0
0007f0 00 00 00 00 00 00 00 00 00 00 00 00 00 00 00 00
       0.0 0.0

weights_1 f8 [64, 784]
000000 55 7e 06 74 ec 2c b3 3f b5 c7 2e b9 7a 66 98 bf
       0.07490423042917745 -0.023828427841813233
000010 99 06 73 34 ce 6d af 3f 69 42 59 4d 83 ea aa 3f
       0.061384624388222515 0.05257044142911555
000020 88 6a 4a a0 ad 42 a5 3f 7b 14 79 3d fd 66 b1 3f
       0.041524339501127605 0.06797774077229406
000030 a7 90 32 a4 ee 1f cd 3f 7f 66 32 b8 33 51 e0 3f
       0.2275369931932165 0.5099123571009868
000040 1d 3b a2 68 c3 76 c6 3f 24 38 98 b5 4d 26 cd 3f
       0.1754993687540826 0.2277314316456237
000050 c2 b2 73 19 78 19 e6 3f fa 7a f5 04 c9 2f ee 3f
       0.6906090256794288 0.9433331581929842
000060 4e 9a 3d 7d dd 8a b2 3f 25 94 c5 0f 00 55 cc 3f
       0.0724314146769782 0.22134400148493785
000070 8e 32 c1 31 0d 28 b2 3f a6 8b f8 63 da 20 a1 bf
       0.0709236380072957 -0.03345377416942279
000080 a9 f4 d0 4e 61 05 d4 3f 1e 85 9f c2 b9 c2 d3 3f
       0.3128283757867601 0.3087601090065436
000090 74 c4 e2 a6 4f 62 aa 3f af e0 f4 a4 ff b4 d0 3f
       0.05153130447559642 0.2610472784904329
0000a0 07 11 70 3a 39 a5 c8 3f 3f bd ef ce 53 e9 c9 3f
       0.19254222253233186 0.20243308643646604
0000b0 c0 dd 06 4b e2 5a b4 3f 4d 73 5e e6 55 80 ae bf
       0.0795117791338873 -0.05957287251587804
0000c0 ab 7d 27 56 a9 66 9a bf dc 7b d9 b2 66 1e 93 3f
       -0.025782247432173538 0.018670658746824262
0000d0 67 53 40 9d 75 98 a0 3f 74 d1 27 e2 f7 d1 b1 3f
       0.03241317314692687 0.06961011191726191
0000e0 43 3e c5 18 9f 8e 86 bf 73 d3 cb 25 b3 77 ab bf
       -0.011014216369090174 -0.05364761196498238
0000f0 67 5a b8 2c 88 37 a1 bf 4f 64 e2 67 22 5b b5 bf
       -0.033626800021171736 -0.08342185055006833
000100 d9 11 14 cd 51 4e 89 3f 17 ba a4 c1 03 46 9f 3f
       0.012356413908954632 0.03054052228361045
000110 94 12 37 67 0d b4 c4 3f 57 33 6b 8d 84 c6 d2 bf
       0.16174476184655318 -0.29336656389641774
000120 c1 f1 23 29 e5 95 c5 3f 01 39 d7 16 b8 45 f4 3f
       0.1686369372254273 1.2670212642875074
000130 54 e3 97 b5 27 35 ef 3f fd 03 19 50 89 ef cc 3f
       0.9752386614555726 0.22606007014294952
000140 fc 71 06 1f 87 28 b1 bf 56 cf d5 87 ec 98 b4 3f
       -0.06702465541315655 0.08045843426026286
000150 38 6a b4 7d c9 17 c1 3f ef 31 d8 cf 39 18 d8 bf
       0.13353842389990844 -0.37647862717929476
000160 1d 71 03 ea 3e ff d9 bf d2 5a 00 8f f1 14 db 3f
       -0.40620396473765813 0.4231532951829823
000170 82 93 d2 76 52 38 ed 3f fe dd b6 b9 87 04 e0 3f
       0.9131252594712438 0.5005530001862437
000180 a6 7a fa 1c 2e 3c e1 bf 21 57 8f b4 61 8b cc bf
       -0.5385962072358168 -0.22300359074022771
000190 6d b1 ae 08 de 31 c0 bf 31 5d 2a 95 6c a9 b5 bf
       -0.12652182983346041 -0.084616457383494
0001a0 82 20 3b 9b ae e3 9e 3f 01 21 5f 62 36 80 b0 bf
       0.030165413116975966 -0.0644563665547402
0001b0 86 95 b8 cc 76 7f b1 bf 45 e4 d0 b9 8b 7d ab bf
       -0.06835119722435054 -0.053692213471045615
0001c0 0c 66 1e c4 7b e8 96 3f b9 ca 2a 6b a7 45 96 3f
       0.02237122902406523 0.021750083843196964
0001d0 cc 0b 36 33 dd 7d 91 bf 45 71 8b 24 03 b9 b1 bf
       -0.017081695795706328 -0.06922931329922218
0001e0 cd 94 fa 68 1f c7 9d 3f ab 97 13 16 c8 72 ca bf
       0.0290799053024287 -0.20662785604434694
0001f0 a9 de aa bc b1 c6 d7 bf 66 4e c5 25 b1 da d2 3f
       -0.3715023367362656 0.29459789932773217
000200 15 b3 c6 fa 56 59 f1 3f 60 4f 4d b9 37 7a ea 3f
       1.0843114658302444 0.8274191493205585
000210 30 37 43 8d e6 4c 7a bf 05 58 90 69 10 8e d0 bf
       -0.006420994370456332 -0.25867090519875574
000220 8e f8 21 b1 b8 79 cc bf fe 98 16 ca 9c 84 d1 bf
       -0.22246464394624293 -0.2737190221327096
000230 0a a4 dd 58 a4 97 d4 bf 5d 24 e3 79 5e a1 e7 bf
       -0.3217554920034337 -0.73844837003811
000240 ef ec ce ba e3 41 da bf ea f7 68 6b c9 76 cf bf
       -0.4102715801524956 -0.24581258530264388
000250 80 00 49 d9 03 3a da 3f ad e8 b4 bb d7 3c e6 3f
       0.40979095668081555 0.694927088369942
000260 fb 13 4d 25 5b cb e4 3f 4a f1 a4 72 c2 32 e2 bf
       0.6498237350975836 -0.5686962355753533
000270 db fe a4 60 fe e0 dc bf d8 c0 81 43 09 39 c9 bf
       -0.4512325233263092 -0.19705310627205708
000280 cb de c5 b7 f7 ca c1 bf 73 d2 c8 5f 9b 82 ac bf
       -0.13900658105170857 -0.05568395179981147
000290 02 1a 38 6d 62 95 b0 3f 72 b2 48 58 8e b2 91 3f
       0.06477942625506475 0.017282699716974333
0002a0 13 f5 f5 bd c8 eb b2 bf 1a 7a bf ca 48 13 73 bf
       -0.07391028058733111 -0.004657062858284289
0002b0 ed 08 3f c5 2c 01 a6 bf 55 05 3a 25 6a 0c 7d 3f
       -0.04297771365919965 0.007091917639287478
0002c0 dd d8 14 e8 71 c2 c8 bf 10 5b 0c 5d 98 12 c0 bf
       -0.1934339888773086 -0.12556747954723635
0002d0 92 a6 77 8a 00 c4 b3 3f 82 e4 79 e8 3a 4c e3 3f
       0.07720950489570047 0.6030554333257359
0002e0 64 05 c4 2b 97 d1 d4 3f 16 3d 6b 0d a1 a0 c1 3f
       0.3252923896216855 0.13771451144428032
0002f0 1a 6d b8 52 3f 36 d1 3f a5 b9 9c 32 fd 65 ce 3f
       0.26893599584737304 0.23748745890902714
000300 05 37 61 9e bd 8a b5 bf 45 27 ed cf 87 ec ba bf
       -0.0841482650441457 -0.10517166925742767
000310 cd 5b c1 b2 4e f7 d5 3f d0 43 e7 e8 8f 20 b5 3f
       0.3432194467217727 0.0825281089412464
000320 c3 56 cb e3 47 31 5e bf 00 3f 23 87 dc 6b b1 3f
       -0.0018428041504895832 0.06805208491573111
000330 0e bf cc 2e 37 00 c0 bf 4a be ce 74 2a cc 5c 3f
       -0.12500657830377587 0.0017576613056283935
000340 35 77 55 d2 6f 51 d5 3f ad 35 bb 05 35 f8 a3 bf
       0.3330955080071932 -0.03900304503404626
000350 e3 bd 7e 09 62 cb dd bf 12 df 0b 63 a4 27 dd bf
       -0.4655385105824889 -0.45554456398484533
000360 01 36 8a b4 b3 3e ae bf 31 3c bb 30 9e 94 a2 3f
       -0.05907212809425389 0.03629011483064238
000370 06 e4 28 3d 89 35 9c 3f 97 4a e9 6e 56 4c a8 3f
       0.02754797397412647 0.047457409895874374
000380 63 35 1c 06 d4 0f b4 bf 80 be fd 1e 11 9b 9b 3f
       -0.07836651944326926 0.026958720699836736
000390 8c 5f de 84 bd 12 af bf 82 f9 26 3f ea 0f ac bf
       -0.06068985220843989 -0.05480892201329636
0003a0 10 d9 39 d1 f8 6a d2 bf f4 20 58 ed e4 e4 a5 bf
       -0.2877790492269847 -0.04276194951313697
0003b0 ec 92 b7 de 3c 57 d6 3f 54 b8 99 e4 f6 7f e0 3f
       0.34907457112994567 0.5156206574299724
0003c0 7d 79 12 87 be f2 e1 3f 7b 02 34 dd 15 2a e0 3f
       0.5608818662765739 0.5051373787283205
0003d0 60 0f d2 7d 9d 5a d2 3f 54 cc 95 73 9a 6e c5 3f
       0.2867807129589348 0.16743784564787012
0003e0 02 87 25 5c 51 b0 b0 bf b5 d3 e6 27 23 bf cc bf
       -0.06519039630577697 -0.22458304832767131
0003f0 4b 95 e3 15 07 fa b7 3f cd 89 6b de 79 91 c4 3f
       0.09365886959456764 0.16068957672457743
000400 c5 9d b9 6d fd f6 d3 3f f2 7d 6a c6 9f 17 cd 3f
       0.31195007052744145 0.22728345096855623
000410 68 d6 d6 37 45 6e c1 3f 12 ef 51 e1 7b 9f c4 3f
       0.136177685036887 0.16111706258731623
000420 ec 95 5c fe 0f f3 d1 3f 93 e2 ad ef fe ec c1 3f
       0.28046035614019504 0.14004503920638864
000430 bb ed 34 72 fc 1c dd bf 3d 0d 05 34 ac 59 d8 bf
       -0.45489417222026035 -0.38047318534900737
000440 d5 91 dc 3b c1 ea d7 bf e8 21 26 4e 7f cd af bf
       -0.37370329709872624 -0.06211469487158522
000450 a6 8d ad ba cd 84 b5 bf 7f ac ba 3a 59 8d b5 bf
       -0.0840576725727745 -0.08418805774515369
000460 fb 95 6a b5 7f 37 b2 3f 8e f6 ee b3 03 24 a1 3f
       0.07115934542760975 0.03347789355710261
000470 61 6c dc 01 34 6e 94 bf 62 28 58 1e d5 ec bd bf
       -0.01995164166792696 -0.11689502707318547
000480 f3 69 69 67 4a c2 d3 bf 4d 1d f5 01 cc 2b b7 3f
       -0.3087335595970721 0.09051203773298262
000490 8f fe 4d 40 71 06 db 3f e5 33 64 c6 de 04 e2 3f
       0.4222682121253251 0.5630945086319313
0004a0 2b 7b e1 e1 4b f3 e0 3f 71 14 9d de 3f 19 e6 3f
       0.5296992694601149 0.6905822132035963
0004b0 6f 09 8d a2 68 8a d8 3f e7 18 fd 21 c5 d8 cf 3f
       0.3834477984820727 0.24880279693224525
0004c0 4b bb f1 b1 b2 19 d2 3f b1 f9 78 2c 75 ca be bf
       0.28281848313684027 -0.12027675948863849
0004d0 94 33 79 9c 08 91 b0 bf 73 46 d0 97 98 68 9a 3f
       -0.06471303768303321 0.02578962732883956
0004e0 4f c0 45 d0 03 39 bc 3f bd 56 90 60 02 4a d4 3f
       0.11024497828270906 0.31701716833172694
0004f0 36 d3 45 72 6d 7b d4 3f cc 0e 5d 68 48 ad d3 3f
       0.3200334182686676 0.3074513453650354
000500 49 8a 52 7d 53 ff d1 3f de 51 c1 db e1 e5 d9 3f
       0.28120887030141667 0.404655899624485
000510 07 41 10 3b 9b 3f cd bf a4 1e 16 b8 0a e5 d3 bf
       -0.2285036123653372 -0.3108546064108657
000520 d3 f5 45 ec 1d 17 e2 bf 39 f2 74 5c 5e 25 d1 bf
       -0.5653218855583709 -0.26790579823481014
000530 5f 70 bd 7d b2 69 c2 bf c4 2b 94 e2 7d a4 b3 bf
       -0.1438506235089134 -0.07672869474133309
000540 03 8c 41 99 4b cc 74 3f 49 77 e6 35 64 10 b1 3f
       0.005077643687488201 0.06665636363910922
000550 7c ae ca ff 2e 05 84 bf 57 3a c7 85 b6 80 cd bf
       -0.009775511914390515 -0.23049050838604287
000560 0e 05 98 dd ec 2e d0 bf 67 b8 02 e7 2c a0 bb bf
       -0.25286409034750157 -0.10791283264072292
000570 18 f6 fb 6a ad fe d9 3f 38 e7 a4 44 b0 d4 dc 3f
       0.40616927573850736 0.4504814787247713
000580 31 29 03 17 e0 7f ce 3f 3f 47 22 66 45 47 e6 3f
       0.23827744601869363 0.6962000841906287
000590 e5 a7 a2 73 d0 ee d2 3f 43 e4 dc d9 cb e1 a1 bf
       0.2958260659457877 -0.03492581400355068
0005a0 0c 79 98 80 48 48 d1 3f a1 41 e8 99 b0 2c c5 3f
       0.2700368171516778 0.16542632594110976
0005b0 51 94 2d 00 fb 69 bc bf 91 9e 38 77 f4 3b a6 3f
       -0.11099213365885531 0.04342616992317717
0005c0 f5 9f 98 12 bd a2 d2 3f fd 3c b8 bd 72 80 dd 3f
       0.29118277374300244 0.460964856408239
0005d0 70 57 64 c7 27 9b dd 3f 70 be 38 05 47 a4 e4 3f
       0.46259493324156775 0.6450533964143244
0005e0 45 d8 bb 2a 93 fd d8 3f fb 0c 1d 83 b7 db cc 3f
       0.3904769818613015 0.22545522596383435
0005f0 a7 06 3c d1 1d 09 bc bf fc 45 4f 44 6e c4 de bf
       -0.10951410635245883 -0.4807391802870311
000600 5c c2 38 bc db 00 e5 bf 61 c4 4a 29 c1 e6 db bf
       -0.6563547779279122 -0.4359591391794933
000610 0a dc 20 e4 2b 21 d9 bf 4a 45 c8 20 d2 39 c6 bf
       -0.39264962461624064 -0.17363955116938207
000620 94 55 a7 2d d2 07 74 3f e7 23 05 cc 05 e3 a2 bf
       0.004890271195525559 -0.03688829532126885
000630 df af 03 a0 a5 6d 7f bf 42 e3 ee c4 cf cd cb bf
       -0.0076729268769035455 -0.21721837154270857
000640 35 4c 1d 24 15 68 de bf 25 67 1b 60 b3 76 b7 bf
       -0.47510269667435817 -0.09165497871745439
000650 3c 4a f1 ab 2a 13 e0 3f 23 18 79 bc bf 31 d0 3f
       0.5023396833660807 0.25303643613404087
000660 62 4c d7 75 56 91 d3 bf f8 6b 13 12 98 d6 dd 3f
       -0.3057457114020449 0.4662227798959857
000670 06 31 02 d9 1d 1f d2 3f b1 60 0d 80 01 90 94 3f
       0.28314920608751526 0.020080588761033528
000680 8e 1b 44 0f 0f 4a ca 3f 21 9a 43 c4 4d 03 bc 3f
       0.20538509602939964 0.10942541162112508
000690 5a 76 5b 8b 28 86 a1 bf ed 83 c3 bd 6d 91 c7 3f
       -0.034226672183404985 0.18412563100630966
0006a0 0c ad a4 bb ac cd d4 3f a9 d9 e7 c8 5b dd c0 3f
       0.3250533897832646 0.1317553263649647
0006b0 8f a9 c7 f8 77 68 e0 3f 81 3b 9d 17 6f 3b e5 3f
       0.5127525195105579 0.6635051213469155
0006c0 ae ce f1 67 31 9d ca 3f 06 9c 28 60 07 c7 d1 3f
       0.20792214942377057 0.27777275457850725
0006d0 96 16 b2 10 e0 78 b4 bf 63 1c 8d de 38 d4 e1 bf
       -0.07996941001519028 -0.5571560236647993
0006e0 8f 05 f6 ac 05 14 e2 bf d4 8c f3 4b ca d7 db bf
       -0.5649441126008002 -0.43504578988195175
0006f0 a8 6d 2e cd 18 e4 d9 bf 85 f2 cb a5 77 10 be bf
       -0.40454692876093157 -0.1174387721802735
000700 a8 ce f6 d3 c2 3b ad 3f 50 9c 52 e3 1f b8 81 3f
       0.05709656560375481 0.008651970982397256
000710 a4 0d 0d 1f c8 d3 ac bf c0 29 26 2e 71 b3 cd bf
       -0.05630326632538221 -0.2320386386239317
000720 a1 2e f6 3a 1f 33 e0 bf 5a eb a0 88 ba 3b ca bf
       -0.5062404777140338 -0.2049477736598771
000730 b9 31 57 af 78 fd d8 3f 12 ee 95 fe d9 f5 c8 3f
       0.3904706680594035 0.1950027936071455
000740 b0 0d bb 97 e6 74 c4 bf 1f bc 5d 25 dc f7 c2 3f
       -0.15981752785419934 0.1481890852405465
000750 67 55 77 4c 9b dc d0 3f 56 bf 06 eb 39 cc c4 3f
       0.26346476046940953 0.16248249030968037
000760 3b 0f ef c5 cc 87 b0 bf f6 e7 0c 3a 79 05 9e 3f
       -0.06457214195603182 0.02931775490581142
000770 e7 5f 9e 31 b7 c4 b0 bf 13 a2 05 32 44 0f c2 3f
       -0.06550164185898631 0.14109089319687537
000780 24 11 80 3e a6 43 c4 bf 5e dd 61 20 8a 50 c5 bf
       -0.15831449558039268 -0.16652037221113408
000790 48 53 83 61 dd e4 9e 3f 95 00 b0 3a c8 fe 9d bf
       0.03016992480918937 -0.029292229253770136
0007a0 47 30 4a c3 b9 68 a0 bf af 8b 76 65 c3 85 d2 3f
       -0.03204899319561654 0.28941426189902136
0007b0 85 f4 9a c3 bc 3c c3 bf b5 82 df 73 06 33 e6 bf
       -0.15029105711974836 -0.6937286627908948
0007c0 1b 14 a2 93 3a db db bf 91 36 4c 2a 22 e1 c2 bf
       -0.43525566499039464 -0.1474955278903747
0007d0 a2 05 dd 46 dc bf bc 3f 29 a1 12 c8 01 da bd 3f
       0.11230255823195148 0.11660777220334197
0007e0 a9 60 a3 4a 58 b7 91 3f fd 6a d5 ef 4e 20 94 bf
       0.017300967746309102 -0.019654496563229696
0007f0 5a b4 03 cb e1 b7 c1 bf a4 67 0b ba 58 a7 d5 bf
       -0.1384241334230037 -0.3383390251962004

biases_1 f8 [64]
000000 3d 3e 20 b5 c0 18 f2 3f 18 07 fc d7 b5 1a d4 bf
       1.1310431552154931 -0.3141302689765424
000010 be b7 a6 b3 27 8e 0e c0 a7 49 08 9f 60 e0 e1 bf
       -3.8194116626027315 -0.5586398225880672
000020 34 65 d2 95 90 82 f2 3f 6a 4e 97 5b f3 c8 f1 3f
       1.156876168481472 1.1115602090621004
000030 72 73 a6 51 14 5f f4 3f 95 1f 0a f2 1c ec f7 3f
       1.2732127370320225 1.495144792048426
000040 31 ce 17 d1 ca 56 01 40 80 5b 9a c2 65 91 61 3f
       2.1673790297880022 0.0021445262435224044
000050 7f 08 49 d5 32 24 fa bf 99 c6 08 e4 7c 72 00 c0
       -1.6338375407654266 -2.0559022727182534
000060 e7 02 dd 55 4b 02 fe bf 02 37 e4 c1 4b fc dd 3f
       -1.875560126689544 0.4685239213439304
000070 34 b8 71 37 eb 05 f2 3f 4a dd 8f 1b 53 26 01 40
       1.126445023135159 2.143713202789205
000080 db c4 4e be 6f 02 04 40 49 ef 11 24 a6 7a cf bf
       2.5011896961010343 -0.24593045006974482
000090 f9 8f 6d 82 e4 dc b2 3f ae 21 fe 32 cd b4 e6 bf
       0.07368305382038888 -0.7095705028487396
0000a0 d0 87 a5 a1 62 49 d1 3f 60 eb 11 7a bf f2 0e 40
       0.270104081972133 3.868529275581224
0000b0 32 f5 07 26 ac f6 f6 3f 33 c7 58 7d bc 70 f2 3f
       1.4352227674092544 1.1525235077246634
0000c0 a5 5d df f2 24 ff f5 3f 89 46 5a 80 cd ef de 3f
       1.374791096421043 0.48338639769017583
0000d0 08 78 b9 69 6b 42 04 40 a5 9e 6b e0 69 cb f8 bf
       2.5324314365125282 -1.5496615187093223
0000e0 8d d5 a2 4d b2 2f e0 3f 37 c3 40 2a f4 cf 0b 40
       0.5058223263101113 3.47653992662563
0000f0 47 4c 95 25 1a 90 f5 bf bb 8e a8 d1 fa 57 f6 3f
       -1.3476811855405388 1.396479433992609
000100 31 a5 f4 86 ec 6e f7 bf 16 5a 75 70 5b 82 f1 3f
       -1.4645810386376292 1.0943254845530013
000110 60 63 35 da 14 ad 07 40 4f bc f8 b9 85 ce ed 3f
       2.959512429003027 0.9314602501161832
000120 7e fc 16 45 b3 3e d3 bf 7a 77 85 f3 a6 7c eb bf
       -0.3007019209580405 -0.8589663273121311
000130 07 b9 31 83 09 46 04 40 9c f1 36 83 96 e8 e0 3f
       2.5341978311108764 0.5283920824800137
000140 27 99 2c d2 0e 1b c0 3f e1 1e 40 54 c3 93 df 3f
       0.1258257414094228 0.49339373805604053
000150 70 93 8f 0f f0 ac e1 3f df 51 c8 70 8e 91 ee bf
       0.5523605636522984 -0.95526811626274
000160 5b 9e 82 9a a2 22 e3 bf 07 37 ca 2d 34 6b cd 3f
       -0.5979779260423571 0.22983410106501642
000170 82 25 93 04 39 6f c1 3f 33 c0 7a c1 8e 87 16 40
       0.1362067482316825 5.632380507580865
000180 52 d3 f7 d3 9c d2 03 40 bb 19 9a 32 c9 0d 05 40
       2.477838188171895 2.6317314103391403
000190 df 30 79 be 73 c8 e2 bf f5 6a c3 0e d3 ed d0 bf
       -0.5869692535575516 -0.2645156521008823
0001a0 54 f6 b0 a7 9c 87 c6 3f 42 00 eb d7 02 cb e1 bf
       0.1760135477833723 -0.5560316292903809
0001b0 f1 6d 4b 1d d0 9a fd bf 9e 61 13 d0 a4 14 0e 40
       -1.8502961296388742 3.760079980460616
0001c0 94 46 87 df 63 2d f2 bf 58 c9 3c 83 b7 e3 64 3f
       -1.1360815745905812 0.0025499901038525223
0001d0 62 73 d1 22 15 a1 0c 40 dc aa d5 a2 3a 1c fc bf
       3.5786535949868474 -1.75689185721665
0001e0 d7 a3 85 12 bf 3f 04 c0 c8 0e 4b 1c 68 97 fc 3f
       -2.531126160338754 1.7869645219042685
0001f0 cf dd 29 49 38 67 f2 bf 30 1c 2a 24 72 89 d9 3f
       -1.1502001626921474 0.39901402980507594

weights_2 f8 [64, 64]
000000 de 3f 49 f3 ba a7 f5 bf 64 3f 17 e1 30 23 f2 3f
       -1.3534497741093143 1.133591536770802
000010 d9 4c e7 04 b3 18 d8 bf de b4 c2 c8 1c 96 cd 3f
       -0.37650752524241465 0.23114356806528397
000020 0e bf b6 6c 76 33 b9 bf 5d c6 94 f3 bb ed cc 3f
       -0.09844150690218731 0.2260050715790837
000030 63 7d 62 79 0f a3 d5 3f 85 ad f9 2a 6b 5b eb 3f
       0.3380774197957718 0.8549095000611692
000040 34 28 41 a2 a1 42 e1 bf f7 0a 30 e6 5d 85 f9 3f
       -0.5393837136300648 1.5950602523523096
000050 d9 44 64 66 e7 a9 ed 3f 37 a5 c8 ae 42 66 ba 3f
       0.9269902229154027 0.10312287108594807
000060 2c be 94 8b 77 b7 de 3f 7e a2 21 80 74 29 fc 3f
       0.4799479353996243 1.7601208691723111
000070 46 a2 6a 73 16 c1 e3 bf be bc bf 34 4a 32 f4 bf
       -0.6173202757100362 -1.2622777996546541
000080 a2 39 12 98 a4 8f db bf f6 60 87 01 8b c1 b1 3f
       -0.43064226961805663 0.06935948169064318
000090 35 80 8c eb 42 f1 bb 3f 20 b2 68 ac 13 30 ec 3f
       0.10915010691360368 0.8808687560427337
0000a0 be e4 4a df 1c 4e 86 3f e1 48 16 45 6b fe f0 3f
       0.010891175808284689 1.0621140192711709
0000b0 14 17 5b 5e 46 44 8e bf 1f 8b 1b ea dd 67 ca 3f
       -0.014778661493788849 0.20629476481470818
0000c0 f6 f1 2a 93 6e b0 e9 bf 13 b2 f7 2a 27 71 da 3f
       -0.8027871012087064 0.41315631099749445
0000d0 85 0e 53 a6 2c 9c cb 3f f0 02 c1 8b 70 25 d2 3f
       0.21570356484709322 0.2835351338181189
0000e0 7e ce 2e 82 65 ff d3 3f cc 40 22 38 be 2e 58 3f
       0.3124631663624554 0.001475988160141428
0000f0 81 c2 7f bd 6d 73 c4 bf 4c 02 83 6a 77 bc cf 3f
       -0.15977260353931302 0.24793904019135693
000100 43 1e 2a c8 35 fe bc 3f b0 a7 6d ec c9 02 c2 bf
       0.11325393807248312 -0.14071010631897485
000110 c2 4a da a1 5a 80 b3 3f 29 d5 f4 5f e1 90 bf bf
       0.07617727710229885 -0.12330444901165961
000120 a7 1a 41 34 db 06 e5 bf a7 12 c1 d2 35 24 ed 3f
       -0.657086946543889 0.910670196179656
000130 a8 a3 26 21 68 29 e0 bf cb 1c 8f bf 9d 4d e2 bf
       -0.5050545356253808 -0.5719746343028417
000140 e6 90 0b 0c 5e c4 c8 3f 84 af b3 fb 81 9f e2 bf
       0.19349265659469167 -0.5819711605122255
000150 83 a1 9e b3 6e b7 ef 3f 62 3e 5f d1 e8 61 eb bf
       0.9911416538425758 -0.8557018365190283
000160 50 5f ad ce 10 dc bd 3f 4e ff 9e ad 84 e8 df 3f
       0.1166391853888602 0.49856678919967556
000170 f5 15 b2 42 56 5f d3 3f de e9 17 ba ee cc e9 bf
       0.3026939059567149 -0.806266177619644
000180 cc c9 e0 f3 43 5d e0 3f 13 b9 83 19 0d 2b 95 3f
       0.5113849414104208 0.02067203968265925
000190 e0 06 ee bc ed fd ba bf a6 e3 72 d7 97 94 f4 3f
       -0.10543714392226944 1.2862776199310502
0001a0 ee 61 2f 1c 0e 21 ef 3f 14 78 b0 91 81 59 f0 3f
       0.9727850485315324 1.0218520823468724
0001b0 40 e9 d5 30 f3 3b d5 bf 55 62 0b 4d e3 37 d1 bf
       -0.33178405541515943 -0.26903612636445945
0001c0 1d 35 51 ff e7 80 cd 3f 92 27 7a 14 82 ed bf bf
       0.23049640623723003 -0.12471783637934511
0001d0 6a 62 2c 91 9f 27 d7 bf 61 a4 5a 43 9b 5e c5 3f
       -0.3617934148510701 0.16694966114781365
0001e0 a2 a6 ba b6 d0 be e7 3f 58 c4 24 ab 82 e0 c1 bf
       0.7420428818633875 -0.13966401440260046
0001f0 6a 0c ae 96 24 65 d0 3f 85 9f aa c5 f0 a0 e6 3f
       0.2561732741816686 0.7071460591005098
000200 79 38 30 50 69 2e ee 3f 04 3f 81 9c 55 52 06 c0
       0.9431654516390743 -2.7902023531859204
000210 20 c0 49 cc 43 b8 d1 3f f6 3a 58 10 a8 81 d1 3f
       0.27687163305290774 0.2735386046996803
000220 6f 2c cb 5d d3 5a e2 bf df 2f eb 4a dd c2 eb 3f
       -0.573587115469662 0.8675371611839146
000230 6e 14 39 c8 d7 f4 c1 3f 5a d8 ea e1 05 38 d6 bf
       0.14028451229583844 -0.3471693712448364
000240 3b ad 7d 71 7e 25 04 40 a2 ca 5f 05 22 3f dc bf
       2.5183075777510147 -0.4413533260805399
000250 48 89 f3 9c 37 50 ea bf d4 b2 92 c9 e0 84 f5 3f
       -0.8222921433883039 1.3449409364649698
000260 0b cc 70 46 f7 bb fa 3f 9b b7 5d dd 5a 3b dc bf
       1.6708901168428862 -0.44112273805409935
000270 39 1d 96 b6 3a 24 f1 3f a5 04 48 8b e4 48 f8 3f
       1.0713450557976343 1.517796081607494
000280 c1 3d 0d 60 76 b4 03 40 67 e9 12 3e ee 13 f3 3f
       2.4631164077797796 1.192365877605505
000290 60 66 85 9d 80 2e e4 3f 30 2e 67 f8 f9 6c da bf
       0.6306765629371505 -0.412901394444563
0002a0 4b ab af b9 98 c6 f0 3f b6 40 39 e3 46 d8 01 c0
       1.048485493981121 -2.2306039573523675
0002b0 02 f2 fc 68 8d fe ad 3f 6e b4 f0 f0 a1 14 e3 3f
       0.05858270556061386 0.5962686258186645
0002c0 31 52 b7 ac 92 7d e9 3f c8 be c7 21 f1 38 f0 bf
       0.7965787289963996 -1.0139018363515095
0002d0 56 2f 70 1e e9 23 f6 bf 53 ca 89 4a e3 8e 00 c0
       -1.3837672413819369 -2.069769460992839
0002e0 cd 4c cb a9 71 82 e9 3f c0 55 83 8c 3d a1 ea 3f
       0.7971733394901094 0.8321826691050589
0002f0 3d 9f 29 e9 c2 bc dd bf fc 19 74 53 1d f3 e7 3f
       -0.46464607972892563 0.7484270696593849
000300 03 44 89 2b ba 0f 01 40 5a 54 9c 78 3a 16 fe 3f
       2.1326793099656256 1.880426856170081
000310 b3 b9 16 58 96 fe f5 3f f9 e6 16 68 4b a2 e1 3f
       1.3746550980537051 0.5510613472935965
000320 13 ea 66 dc ea 2f ee bf b4 db 53 fd 39 55 0c c0
       -0.9433492951132528 -3.5416145125595566
000330 57 de b5 62 23 e8 00 40 5b 08 be e5 b4 26 f6 3f
       2.1133487426521174 1.3844498609837703
000340 96 80 1b 7f bf fd d8 3f 1c d8 12 b5 3d f0 f8 3f
       0.3904875508578781 1.5586525986850637
000350 fe ed 94 a3 03 d4 db bf 4f 24 3b 6e 79 b9 fe bf
       -0.4348153207281199 -1.920281820859845
000360 76 b4 f6 4e a4 15 c2 3f 1c 69 ab cb e8 35 c8 bf
       0.14128545623444538 -0.18914518303683614
000370 b4 5d fd 61 63 ff d9 3f d9 78 b2 28 89 87 ee 3f
       0.40621265954311103 0.954044894682535
000380 11 7f 46 1f e5 d4 8e 3f 23 28 87 11 48 ee a7 bf
       0.015054502503346197 -0.046739818706172075
000390 35 ea fd 47 79 15 ff bf b2 7e 1e 8d 1c 41 d1 bf
       -1.942742615907844 -0.2695990923038877
0003a0 7a d2 d1 a7 eb 75 e4 bf 40 17 df c7 08 4c e9 bf
       -0.6393945958830749 -0.7905315307368497
0003b0 e7 65 ec 28 b3 8e f5 3f 46 2e dc 24 99 af f8 3f
       1.3473388289042931 1.5428706588599126
0003c0 fa 75 46 bf a9 93 d9 bf fd b9 12 0f 3d 8b fc bf
       -0.399637638847565 -1.783993777160162
0003d0 04 b8 7d d8 66 73 ae bf ba 2e 97 29 b3 ba dd 3f
       -0.059474195410857106 0.46452025472238356
0003e0 34 20 94 84 63 1b ef bf f1 68 28 01 96 2c 04 40
       -0.9720933522630788 2.521770485921586
0003f0 aa 0b a5 53 16 ff b1 3f ce ba a8 8c bb cb 00 40
       0.07029857198817405 2.0994788159363003
000400 6a 62 ef 95 5c 0d d5 3f 49 4f 69 86 b3 18 e2 3f
       0.32894053117846644 0.5655152917119973
000410 8f 69 f6 f7 f5 3c ee 3f ec 90 bf 95 b0 b0 dc 3f
       0.9449415057199974 0.4482842886338989
000420 49 63 d3 b6 f5 c1 d2 3f 72 e2 6b 63 21 22 e0 bf
       0.2930883679778629 -0.5041663114380539
000430 94 31 eb 51 82 35 d4 3f 44 50 05 be 1f 10 98 3f
       0.3157659339892913 0.02349900815291074
000440 8d 9a f2 48 6b 39 a5 bf 0c 46 51 78 c1 41 c6 bf
       -0.0414536978290033 -0.17388170599819863
000450 f3 53 97 55 6c 77 e2 3f 8a 24 4c e0 bf ca a8 3f
       0.5770780250264792 0.048421856050546344
000460 6d 54 36 c2 41 c3 e4 3f 11 33 83 47 1b b6 bc bf
       0.6488350671012434 -0.11215372558508487
000470 54 ca 55 b7 70 ca 8f bf a4 25 fb be dd c7 dd bf
       -0.015522842974609187 -0.4653238644646882
000480 b7 b8 7c e5 e0 ff 90 bf 27 99 4f 30 fb 2e ea 3f
       -0.01660109902075454 0.8182350104878297
000490 27 17 ec 81 63 70 c6 3f dc e6 9a cd fc ac de 3f
       0.1753048309694176 0.47930831984159084
0004a0 5c 2e a6 7e 85 76 dd bf f5 cd db c4 70 18 b6 bf
       -0.4603589760597282 -0.08631043249243205
0004b0 e7 28 b7 b7 f2 b1 c9 bf 9d 3d f9 64 7b 99 db bf
       -0.20074304552537756 -0.43124279843046925
0004c0 51 e8 89 4d 54 6d d6 3f 3a 38 1f 12 0e b9 d7 3f
       0.3504229314054373 0.37066985864374014
0004d0 82 c6 30 70 f1 1b cf 3f 07 8b c0 6b 7d d2 d8 3f
       0.2430402562909429 0.3878472854868708
0004e0 92 98 2d 6e 74 1f d5 bf 7e 52 36 3d 33 af d9 bf
       -0.3300448490102862 -0.40131836869958437
0004f0 a4 27 a5 0a 8a 31 d6 3f a6 8c a6 2b e7 42 cc bf
       0.3467736343342216 -0.2207917178285232
000500 9e 7a a3 30 e2 e2 b6 3f 21 96 f5 4c 57 dd d4 3f
       0.0893994683023984 0.3260095836215858
000510 b8 85 8a 6b 88 77 ae bf 14 e4 61 1d 99 3f d2 bf
       -0.05950571358449558 -0.28513172025083233
000520 7d 84 96 0c 16 04 e0 3f 39 30 8b 84 67 85 c6 3f
       0.5004987951143814 0.17594617816792082
000530 87 10 d3 7e 70 6f c1 bf 63 c6 0d 9c 27 7e dd 3f
       -0.1362133616695511 0.46082487334851957
000540 d9 43 63 54 93 06 b6 3f 15 4d 98 aa 56 b6 b7 bf
       0.08603783426521207 -0.09262601532855215
000550 57 50 57 ed 4e c8 df 3f 26 3a ce 9f fb 15 9e 3f
       0.49660084894026596 0.02938073313594649
000560 61 41 1a 1d 2a d7 d2 3f 6f b7 14 4d 68 55 ab bf
       0.29438259927794347 -0.05338598195008514
000570 46 e2 e8 dc 28 ea bb bf 8e 5b 96 e7 fd 11 98 bf
       -0.10904174226096428 -0.023506133327454708
000580 ba e3 4f e1 c1 c7 d9 bf 53 fb 7f ee 12 69 cd bf
       -0.4028172207177324 -0.2297691025305207
000590 83 23 1d 9f be c6 e7 3f 3b f8 88 8e 5a f4 b8 bf
       0.7430108173076494 -0.09747854213580436
0005a0 cb 2a 2f 43 5f f7 df 3f 1a 52 d7 eb d3 99 e8 3f
       0.4994733959289703 0.7687778097411553
0005b0 c7 fb 98 88 b8 78 d1 3f 64 0f 2b 77 d3 11 cb 3f
       0.2729932149849756 0.2114815074802393
0005c0 93 b6 1e 5f 05 ba d1 3f c9 13 0f 80 22 97 e0 3f
       0.276978819742774 0.5184490681791597
0005d0 56 5c 9f 87 99 80 a3 bf 6a ee a5 8f 2a 8f e0 3f
       -0.038090513043862614 0.51747634941371
0005e0 61 35 0a c7 70 58 d9 3f 2f 1d f1 79 f7 85 cb 3f
       0.39602298200119007 0.21502583936874362
0005f0 0d d5 12 5e bb 6b d2 3f e4 f4 4a 86 b6 89 d1 bf
       0.28782543360587526 -0.274030333657562
000600 9c be ce d0 88 c8 e2 3f 1a 80 25 7c ad b1 d1 3f
       0.5869793012879714 0.27646958469085947
000610 27 de 7f 36 08 f1 01 c0 43 99 a5 e1 a8 91 00 c0
       -2.242691446091857 -2.0711228970205027
000620 21 dd 6f db 89 79 e7 bf b5 32 d5 79 d3 c9 eb 3f
       -0.7335862432363777 0.8683869723841641
000630 16 9e cc 85 df db f2 3f 4d 42 c6 b9 0b 8d ec bf
       1.1786799646887451 -0.8922175053031168
000640 c0 06 29 e5 5b c9 d5 bf 1e 38 80 33 68 4c e2 3f
       -0.3404149759190709 0.5718270307422733
000650 65 0c 3c 18 2b 77 e1 bf 5b 21 cd dc 8f 1f b8 bf
       -0.545796916325696 -0.0942315973344469
000660 4a 9e 9c 74 42 1e c9 bf a5 b7 0a 18 c8 e6 e5 bf
       -0.19623594945845674 -0.6844215840881033
000670 bd fa 60 f2 7c e8 eb 3f d0 09 bf ac 74 36 e7 bf
       0.8721298917733616 -0.725397431750304
000680 9f 42 c2 c8 1b 97 e0 bf 61 ee 32 e4 be 98 d2 bf
       -0.5184458657332306 -0.2905728558068628
000690 d5 4f d0 75 70 5c fc 3f ad 79 0b 61 cf 76 ab bf
       1.7725681879137387 -0.05364082393292633
0006a0 27 e5 ea 5a 14 a9 ad 3f 2b 02 f9 af 00 7c ba bf
       0.057930599306425905 -0.10345463081558452
0006b0 32 92 9d 54 85 c9 c9 3f da 85 75 f3 b5 0c e8 3f
       0.2014624274408035 0.7515516047534974
0006c0 03 e4 85 7d 0f 9d d5 3f 62 23 6e c8 6a 64 e1 bf
       0.3377112127123498 -0.5435079493191604
0006d0 02 58 f1 0f 55 99 da 3f 43 2d 20 1f 8d 95 c8 3f
       0.4156086593333158 0.19206394214448083
0006e0 7c 7d ed f3 29 20 f7 3f 33 c6 8c 4f 50 98 e3 bf
       1.445352509348452 -0.6123429826458903
0006f0 2a 77 e8 42 4b 56 ed bf 5d ef e7 fb 81 55 c2 3f
       -0.9167839342878541 0.1432344894418475
000700 18 2c b0 46 97 d6 c2 bf c4 1a 0a ff 5e ce be 3f
       -0.14717379523821772 0.12033647276448806
000710 c0 af 6b d3 a4 80 c0 bf 89 ae 03 6f ee a2 8c 3f
       -0.1289258987738986 0.013982641947641443
000720 6b e1 02 57 29 01 fc bf 25 9d 1d b5 19 34 e0 3f
       -1.750283565414146 0.5063599145331962
000730 89 fd 11 02 3f 3d e9 3f 05 00 9b c7 3f 43 fd bf
       0.7887263336596543 -1.828918246945251
000740 3e 30 88 0a ab 0d e4 3f 33 c3 7d 51 dc b0 d7 3f
       0.6266684728339056 0.3701697154820522
000750 ca 2c d6 0f 02 23 a8 3f a4 8d 55 a9 dd 10 fd bf
       0.04714209025686385 -1.8166176428429504
000760 63 28 bc cc 03 dc 04 c0 8a d5 cf aa 3d da c2 bf
       -2.6074291224404518 -0.14728518333837953
000770 66 d3 af 07 af a9 f7 3f 0a 09 4a d5 e0 f2 e2 bf
       1.478926687266005 -0.592148224430532
000780 24 be 2c 36 5e 0e ed 3f 71 ab 0a b4 e1 07 d4 3f
       0.9080039079762554 0.3129810579509274
000790 31 3e a4 8b 6e 7f da bf f0 8d f5 31 58 9b ef bf
       -0.41402782093880136 -0.9877129531636779
0007a0 15 b3 23 9e 39 08 cd 3f 4c 33 38 d0 a1 2e c2 bf
       0.22681350919392487 -0.14204809824914333
0007b0 cb 50 06 be d6 71 bc bf 10 cc dd 30 a8 ab cc 3f
       -0.11111204280161073 0.22398855577520793
0007c0 1e b5 10 a2 47 2c e5 3f 80 8a 58 20 e5 66 f5 bf
       0.6616552510583096 -1.337620855666188
0007d0 10 c4 02 86 c8 a5 da 3f 0e 96 13 ea 69 82 d8 bf
       0.4163686093043575 -0.3829598222640421
0007e0 a9 34 71 71 b4 f2 f5 bf 88 3f c8 57 d1 32 d8 3f
       -1.3717541152321167 0.3781016690490948
0007f0 10 6c eb 98 2f 32 f0 bf 97 a6 23 4d 3c 1e fa 3f
       -1.0122524236128392 1.632381726575124

biases_2 f8 [64]
000000 a3 24 2f c4 da 32 d9 3f 43 9c aa e3 ea e5 df 3f
       0.3937289157734744 0.4984080527596612
000010 1e 82 b5 8d b2 60 cf 3f 82 89 ed d4 8e 03 b8 3f
       0.24513847274194317 0.09380428980288083
000020 28 2c 27 b0 46 ee be bf 3e f7 ea 11 f6 78 d7 bf
       -0.12082330513582973 -0.3667578864077433
000030 17 29 69 2d af 2a bd bf 7d b5 44 6a c1 7a db 3f
       -0.11393256052648258 0.4293674028184212
000040 77 46 59 4a e1 24 e1 3f 74 b8 85 93 9b ad d2 3f
       0.5357519580958997 0.29184617430190163
000050 77 99 7c ec c9 16 d5 3f a1 5d 34 bd 01 6f 88 bf
       0.32951591581731726 -0.011930478655400036
000060 14 4b 04 a0 c7 94 97 3f 73 16 b4 cf 22 30 d7 3f
       0.023028487340592 0.3623129871706176
000070 92 7b a5 c5 18 e3 c3 bf 2d ee bf bb 1d d1 d3 3f
       -0.1553679432936091 0.30963843665060403
000080 83 c8 54 91 82 a1 d2 3f 5b 36 23 26 ea fd a4 bf
       0.2911077899217462 -0.04099971499963991
000090 2f 24 0f d6 c0 4b d5 3f 34 d1 02 1b e8 07 b0 bf
       0.33274861244405235 -0.062620646090015
0000a0 00 ed e4 f8 4d fe d6 3f 03 62 13 e1 39 2b d5 3f
       0.35927151971891647 0.3307633111958525
0000b0 9a 5b 50 04 99 e2 d0 3f 72 8d b1 a1 6c 7b d9 3f
       0.2638304273727329 0.3981582240141598
0000c0 e7 d0 e6 06 0d f0 b9 3f b6 d8 9c 9d 5a c4 b7 bf
       0.1013191358422919 -0.09283987377134192
0000d0 94 81 4e 33 21 41 c8 3f 2a 6a f5 83 16 60 c8 3f
       0.1894876003762077 0.1904323715524055
0000e0 5f 64 20 35 56 78 c3 bf af 45 be 87 82 70 e2 3f
       -0.15210988611287043 0.576234116672074
0000f0 6d 13 8d f3 18 d9 c4 3f 8a fd 76 33 41 a8 af bf
       0.16287528888838257 -0.06183055642349718
000100 6d 04 73 9e 34 08 9d bf b2 b5 73 55 7b ae b3 3f
       -0.028351614161469408 0.07688113056402449
000110 da 85 09 50 82 18 e1 3f 4f 97 c0 26 0f 41 d4 3f
       0.5342418254114663 0.3164708975258365
000120 c7 d4 ed a0 6e 9b ba 3f 04 f9 22 58 da 73 e6 3f
       0.10393420628482196 0.7016422006052214
000130 64 7b 1c f4 60 9d a5 3f 4c 10 1d 23 6e 40 c7 3f
       0.042216329382646106 0.18165375437286213
000140 ef 47 e4 c0 64 88 e0 3f 85 47 eb c2 d1 37 b6 3f
       0.5166496055046518 0.08678923615232577
000150 4a d3 e6 b6 31 a9 c1 3f 85 95 7b 28 64 bc c0 3f
       0.13797589712853614 0.13074924446770467
000160 28 8f a8 4f 0a a4 d6 3f 6a 1f f0 d2 05 0c ce 3f
       0.3537622239984892 0.23474190520959876
000170 5c 0c fb 23 2e c9 d0 3f 52 67 8e d0 c8 19 75 3f
       0.2622790671704871 0.005151543075862923
000180 03 4e a5 16 82 59 d0 3f 90 1e f8 58 dd a9 d4 3f
       0.25546314441200496 0.3228677147712711
000190 12 8e 2a 7e 67 0a d4 3f 33 ed b3 ab c4 aa c0 3f
       0.3131350261776059 0.1302114332573666
0001a0 6e e4 f0 96 2f 12 d1 3f 4b 76 ba d9 98 72 e3 3f
       0.26673497906046506 0.6077389004237345
0001b0 43 1c b9 e0 56 85 c6 3f 2a 81 c4 81 c1 20 d9 3f
       0.17594419453436858 0.3926242606412581
0001c0 2d 96 7f 23 ac da e0 3f 95 8d 22 1e c2 d7 cd 3f
       0.526693410237106 0.2331469199317381
0001d0 4b 97 eb 3c f1 a3 b5 bf 36 65 99 51 e3 08 d4 3f
       -0.08453281152068574 0.31304247826263365
0001e0 05 a1 79 ca 43 4a cc 3f 0c 05 36 00 14 a0 b7 3f
       0.22101638208847177 0.09228634839202615
0001f0 0a d1 4e 10 83 56 d5 3f ec 9e 64 a7 19 3f cb 3f
       0.33340527145925647 0.2128631656025769
