fashion_mnist_model.npz (npz, 448686 bytes, 7 tensors)

biases_0 f8 [784]
0	0x0000000000000000	0.0
1	0x0000000000000000	0.0
2	0x0000000000000000	0.0
3	0x0000000000000000	0.0
4	0x0000000000000000	0.0
5	0x0000000000000000	0.0
6	0x0000000000000000	0.0
7	0x0000000000000000	0.0
8	0x0000000000000000	0.0
9	0x0000000000000000	0.0
10	0x0000000000000000	0.0
11	0x0000000000000000	0.0
12	0x0000000000000000	0.0
13	0x0000000000000000	0.0
14	0x0000000000000000	0.0
15	0x0000000000000000	0.0
16	0x0000000000000000	0.0
17	0x0000000000000000	0.0
18	0x0000000000000000	0.0
19	0x0000000000000000	0.0
20	0x0000000000000000	0.0
21	0x0000000000000000	0.0
22	0x0000000000000000	0.0
23	0x0000000000000000	0.0
24	0x0000000000000000	0.0
25	0x0000000000000000	0.0
26	0x0000000000000000	0.0
27	0x0000000000000000	0.0
28	0x0000000000000000	0.0
29	0x0000000000000000	0.0
30	0x0000000000000000	0.0
31	0x0000000000000000	0.0
32	0x0000000000000000	0.0
33	0x0000000000000000	0.0
34	0x0000000000000000	0.0
35	0x0000000000000000	0.0
36	0x0000000000000000	0.0
37	0x0000000000000000	0.0
38	0x0000000000000000	0.0
39	0x0000000000000000	0.0
40	0x0000000000000000	0.0
41	0x0000000000000000	0.0
42	0x0000000000000000	0.0
43	0x0000000000000000	0.0
44	0x0000000000000000	0.0
45	0x0000000000000000	0.0
46	0x0000000000000000	0.0
47	0x0000000000000000	0.0
48	0x0000000000000000	0.0
49	0x0000000000000000	0.0
50	0x0000000000000000	0.0
51	0x0000000000000000	0.0
52	0x0000000000000000	0.0
53	0x0000000000000000	0.0
54	0x0000000000000000	0.0
55	0x0000000000000000	0.0
56	0x0000000000000000	0.0
57	0x0000000000000000	0.0
58	0x0000000000000000	0.0
59	0x0000000000000000	0.0
60	0x0000000000000000	0.0
61	0x0000000000000000	0.0
62	0x0000000000000000	0.0
63	0x0000000000000000	0.0
64	0x0000000000000000	0.0
65	0x0000000000000000	0.0
66	0x0000000000000000	0.0
67	0x0000000000000000	0.0
68	0x0000000000000000	0.0
69	0x0000000000000000	0.0
70	0x0000000000000000	0.0
71	0x0000000000000000	0.0
72	0x0000000000000000	0.0
73	0x0000000000000000	0.0
74	0x0000000000000000	0.0
75	0x0000000000000000	0.0
76	0x0000000000000000	0.0
77	0x0000000000000000	0.0
78	0x0000000000000000	0.0
79	0x0000000000000000	0.0
80	0x0000000000000000	0.0
81	0x0000000000000000	0.0
82	0x0000000000000000	0.0
83	0x0000000000000000	0.0
84	0x0000000000000000	0.0
85	0x0000000000000000	0.0
86	0x0000000000000000	0.0
87	0x0000000000000000	0.0
88	0x0000000000000000	0.0
89	0x0000000000000000	0.0
90	0x0000000000000000	0.0
91	0x0000000000000000	0.0
92	0x0000000000000000	0.0
93	0x0000000000000000	0.0
94	0x0000000000000000	0.0
95	0x0000000000000000	0.0
96	0x0000000000000000	0.0
97	0x0000000000000000	0.0
98	0x0000000000000000	0.0
99	0x0000000000000000	0.0
100	0x0000000000000000	0.0
101	0x0000000000000000	0.0
102	0x0000000000000000	0.0
103	0x0000000000000000	0.0
104	0x0000000000000000	0.0
105	0x0000000000000000	0.0
106	0x0000000000000000	0.0
107	0x0000000000000000	0.0
108	0x0000000000000000	0.0
109	0x0000000000000000	0.0
110	0x0000000000000000	0.0
111	0x0000000000000000	0.0
112	0x0000000000000000	0.0
113	0x0000000000000000	0.0
114	0x0000000000000000	0.0
115	0x0000000000000000	0.0
116	0x0000000000000000	0.0
117	0x0000000000000000	0.0
118	0x0000000000000000	0.0
119	0x0000000000000000	0.0
120	0x0000000000000000	0.0
121	0x0000000000000000	0.0
122	0x0000000000000000	0.0
123	0x0000000000000000	0.0
124	0x0000000000000000	0.0
125	0x0000000000000000	0.0
126	0x0000000000000000	0.0
127	0x0000000000000000	0.0
128	0x0000000000000000	0.0
129	0x0000000000000000	0.0
130	0x0000000000000000	0.0
131	0x0000000000000000	0.0
132	0x0000000000000000	0.0
133	0x0000000000000000	0.0
134	0x0000000000000000	0.0
135	0x0000000000000000	0.0
136	0x0000000000000000	0.0
137	0x0000000000000000	0.0
138	0x0000000000000000	0.0
139	0x0000000000000000	0.0
140	0x0000000000000000	0.0
141	0x0000000000000000	0.0
142	0x0000000000000000	0.0
143	0x0000000000000000	0.0
144	0x0000000000000000	0.0
145	0x0000000000000000	0.0
146	0x0000000000000000	0.0
147	0x0000000000000000	0.0
148	0x0000000000000000	0.0
149	0x0000000000000000	0.0
150	0x0000000000000000	0.0
151	0x0000000000000000	0.0
152	0x0000000000000000	0.0
153	0x0000000000000000	0.0
154	0x0000000000000000	0.0
155	0x0000000000000000	0.0
156	0x0000000000000000	0.0
157	0x0000000000000000	0.0
158	0x0000000000000000	0.0
159	0x0000000000000000	0.0
160	0x0000000000000000	0.0
161	0x0000000000000000	0.0
162	0x0000000000000000	0.0
163	0x0000000000000000	0.0
164	0x0000000000000000	0.0
165	0x0000000000000000	0.0
166	0x0000000000000000	0.0
167	0x0000000000000000	0.0
168	0x0000000000000000	0.0
169	0x0000000000000000	0.0
170	0x0000000000000000	0.0
171	0x0000000000000000	0.0
172	0x0000000000000000	0.0
173	0x0000000000000000	0.0
174	0x0000000000000000	0.0
175	0x0000000000000000	0.0
176	0x0000000000000000	0.0
177	0x0000000000000000	0.0
178	0x0000000000000000	0.0
179	0x0000000000000000	0.0
180	0x0000000000000000	0.0
181	0x0000000000000000	0.0
182	0x0000000000000000	0.0
183	0x0000000000000000	0.0
184	0x0000000000000000	0.0
185	0x0000000000000000	0.0
186	0x0000000000000000	0.0
187	0x0000000000000000	0.0
188	0x0000000000000000	0.0
189	0x0000000000000000	0.0
190	0x0000000000000000	0.0
191	0x0000000000000000	0.0
192	0x0000000000000000	0.0
193	0x0000000000000000	0.0
194	0x0000000000000000	0.0
195	0x0000000000000000	0.0
196	0x0000000000000000	0.0
197	0x0000000000000000	0.0
198	0x0000000000000000	0.0
199	0x0000000000000000	0.0
200	0x0000000000000000	0.0
201	0x0000000000000000	0.0
202	0x0000000000000000	0.0
203	0x0000000000000000	0.0
204	0x0000000000000000	0.0
205	0x0000000000000000	0.0
206	0x0000000000000000	0.0
207	0x0000000000000000	0.0
208	0x0000000000000000	0.0
209	0x0000000000000000	0.0
210	0x0000000000000000	0.0
211	0x0000000000000000	0.0
212	0x0000000000000000	0.0
213	0x0000000000000000	0.0
214	0x0000000000000000	0.0
215	0x0000000000000000	0.0
216	0x0000000000000000	0.0
217	0x0000000000000000	0.0
218	0x0000000000000000	0.0
219	0x0000000000000000	0.0
220	0x0000000000000000	0.0
221	0x0000000000000000	0.0
222	0x0000000000000000	0.0
223	0x0000000000000000	0.0
224	0x0000000000000000	0.0
225	0x0000000000000000	0.0
226	0x0000000000000000	0.0
227	0x0000000000000000	0.0
228	0x0000000000000000	0.0
229	0x0000000000000000	0.0
230	0x0000000000000000	0.0
231	0x0000000000000000	0.0
232	0x0000000000000000	0.0
233	0x0000000000000000	0.0
234	0x0000000000000000	0.0
235	0x0000000000000000	0.0
236	0x0000000000000000	0.0
237	0x0000000000000000	0.0
238	0x0000000000000000	0.0
239	0x0000000000000000	0.0
240	0x0000000000000000	0.0
241	0x0000000000000000	0.0
242	0x0000000000000000	0.0
243	0x0000000000000000	0.0
244	0x0000000000000000	0.0
245	0x0000000000000000	0.0
246	0x0000000000000000	0.0
247	0x0000000000000000	0.0
248	0x0000000000000000	0.0
249	0x0000000000000000	0.0
250	0x0000000000000000	0.0
251	0x0000000000000000	0.0
252	0x0000000000000000	0.0
253	0x0000000000000000	0.0
254	0x0000000000000000	0.0
255	0x0000000000000000	0.0

weights_1 f8 [64, 784]
0	0xbf8c66eac922fdfc	-0.013868173850254621
1	0xbfa74d0019d5ddb6	-0.04550934138654432
2	0xbfaff56e156c2585	-0.06241935740952002
3	0x3faa1a72fe6c1c6e	0.050983041341219656
4	0x3f840221603a4882	0.009769688367019084
5	0x3f95320752966857	0.020698656478636526
6	0x3fb63332a066f4d7	0.08671871582096756
7	0xbf9df706902f35d4	-0.02926264052421408
8	0xbfdd8dffd599b6d0	-0.46179195269983797
9	0xbfe49109287979b2	-0.6427045622365795
10	0xbff7d3e2ba594b74	-1.4892298964739128
11	0xbffa5727952c9d30	-1.6462779833908137
12	0xbfca66b5499b3d62	-0.20625940412581217
13	0xbfe7f6965652b277	-0.7488509832379141
14	0xbff65744ef5d935a	-1.396305975934601
15	0xbfe8b79ad56b0255	-0.7724126976318738
16	0xbffb65bc1f64f45d	-1.7123376108495656
17	0xc0030a4787e5d158	-2.380019246769887
18	0xbffb3c2f26f99961	-1.702193405386048
19	0xbff604f8c01f88df	-1.3762137894450956
20	0xbff5e9d997e6cab0	-1.3695922788289572
21	0xbff76f958bd50df9	-1.4647422277638482
22	0xbff0080f3d8eae80	-1.0019676594337454
23	0xbfdcd269e4653a91	-0.4503426294731208
24	0x3fd25e83aa4744cb	0.2870186961054741
25	0x3fc6207fdfb94aa5	0.17286680625928344
26	0xbfccd74850605fec	-0.2253198997939302
27	0xbfb210959cd530b5	-0.07056555823254736
28	0x3fb19eaeb0c0d960	0.06882755103365445
29	0xbfb493efbdc00b02	-0.08038233168194256
30	0xbfc08e759ca37869	-0.1293475165211391
31	0xbfa21ec273a0c1e6	-0.03539092694734673
32	0xbfb92eeee407037a	-0.09837239329409711
33	0xbfa962369b0f83d7	-0.049577433040901724
34	0xbfb27fe93d69a7f3	-0.07226426839193305
35	0xbf9b33248a362a79	-0.02656228154732296
36	0xbf8d6036bdbb6ddd	-0.014343669572034418
37	0xbfcacca67140f8e6	-0.20937042741747475
38	0xbfdd3fd526af26bd	-0.45702103402855326
39	0xbfee8dd7974dee98	-0.9548147158779612
40	0x3f58af1faf7481a0	0.0015065965106445325
41	0x3fe6041313640567	0.687997377274013
42	0x3fd0edbadaad3358	0.26450988154538413
43	0xbfc78783e71e9b9d	-0.1838230970872389
44	0xbff23a68d3d8e297	-1.139260127571253
45	0xbff7cd1530a7e471	-1.487569036542734
46	0x3fc2515f1dbd8f0b	0.14310826255961503
47	0xbfe2ba025611a913	-0.5852061921152959
48	0xbfd168cfa081ecd2	-0.27202215838015065
49	0xbfe29f8e2bc74089	-0.581976972107456
50	0xbfe2743ddacf5496	-0.5766896508818202
51	0xbfe2422e13b5e382	-0.5705786118479497
52	0xbfdc52141b853714	-0.44250967681442543
53	0x3fbbd0a2659ba1b0	0.10865225773489473
54	0xbfd5f01c1358e7b1	-0.34278013123877843
55	0xbfbfdf369b9fa2df	-0.12449971484569343
56	0x3f80d11642590130	0.008211301708002411
57	0xbfb10036c00e5325	-0.06640951336732977
58	0x3fae2249757aa00d	0.05885533865995294
59	0x3f9a202d85f35bf1	0.025513373661706088
60	0xbfb6577f80013177	-0.08727261424173159
61	0xbfcf01765b52b273	-0.24223212679989423
62	0x3fbf4ed1563ee36a	0.12229641299826502
63	0x3fdcbad4e109aa21	0.4489032933840083
64	0x3fd8475768c213a9	0.37935433607372687
65	0xbfaa484c8b215dfe	-0.051332847579654825
66	0x3fa09c45eb1efca9	0.032442269278811615
67	0xbfea6a662e1954c9	-0.8254881763811223
68	0xbfef2d280ae877a1	-0.9742622578667018
69	0x3fdcebeec2bfac36	0.45190018671445686
70	0xbfe9ad724810fb18	-0.8024226577325377
71	0xbff999af4c14bc03	-1.6000206920541593
72	0xbff461697efb1cdc	-1.2737822494689715
73	0xbff4556847283c27	-1.2708514003350133
74	0xbf9eacb39f2f171f	-0.029955679503266382
75	0xbfd1c194b0e73b14	-0.2774402358599428
76	0x3fe5a76b37e9b5a9	0.6766868679093722
77	0x3fcc9a2d2418e31f	0.22345508825835567
78	0x3fca37ac4c78dfdc	0.20482400640480491
79	0x3ff0d96d48458bd3	1.05308273535842
80	0x3fc243a21727926d	0.14268900042147284
81	0xbfeaa864de20adc7	-0.8330559099608131
82	0xbfd474d29f86434e	-0.3196302945953463
83	0xbfa3ff49e9ce3d91	-0.039057073393560356
84	0x3fb0487374e02ad8	0.06360551455888286
85	0x3f919bca00247c5f	0.017195850619028948
86	0x3fa862b869cb9685	0.047628176607571716
87	0x3f9355f8ec074af7	0.018882645994220373
88	0xbfcec5545053d0e5	-0.24039701387631066
89	0xbfbf4b012bcf99a4	-0.1222382289848612
90	0x3fd0b8882166cfe9	0.2612629247844312
91	0x3fe06b61bf926d50	0.5131081334724659
92	0x3fe024939892477c	0.5044649104986401
93	0xbfc85795da2eec5a	-0.1901728930805316
94	0x3fc6ef82857d3142	0.1791842605401915
95	0xbfcd2eb9219eb2c0	-0.2279883779678098
96	0xbff4d3fcaba599b5	-1.3017546372371787
97	0xbfd490e0392e7a7e	-0.32134252151619325
98	0xbff404b8ed594912	-1.2511529227672935
99	0xbff75d740809a8bb	-1.460315734288584
100	0xbff6606efa2e228c	-1.3985433361687312
101	0x3fe29f1c0d2de039	0.5819225556761075
102	0x3fdda9f3793af41e	0.4634979900254751
103	0x3fef7c04de1e8cb7	0.983889039828134
104	0x3ff9ffed715cb7d1	1.624982302495017
105	0x3fec6fa80031a354	0.8886299136912421
106	0x3fd8b59e8242202a	0.3860851547292464
107	0x3fc1eb92ae9e5740	0.14000161672873368
108	0x3fe292a88591588e	0.5804026230569137
109	0xbfc012a783f09693	-0.12556928579686097
110	0xbfae9255d56dd969	-0.05971019964538266
111	0xbfb50cccca454d53	-0.08222656191110404
112	0x3fb039437f0a7f8c	0.06337377406680228
113	0xbf921da571f8dcec	-0.017691216546350683
114	0x3fc01308df2279d1	0.12558089156386967
115	0x3fc82c47ce8b818e	0.18885133347704336
116	0x3f9836a7872e98fb	0.02364599001489241
117	0x3fb81592727bbc59	0.09407916350368008
118	0x3fd15be2cc38922b	0.27123327201323616
119	0x3fe15dc63fc979e8	0.5426970716324009
120	0x3fecc6050c67a199	0.8991723291665493
121	0x3fd094759582e761	0.25906123734204384
122	0x3fe369081fcfa9e9	0.6065712567627176
123	0x3fee5c133d682910	0.9487396430352266
124	0x3f8808b79e914e6b	0.011735376860236365
125	0xbfb309a38a512e4e	-0.07436582686312329
126	0xbfce14803f49fbeb	-0.2350006398227998
127	0xbfea100aa67433c9	-0.8144582034161597
128	0x3f965e447ae2e966	0.021843976974858313
129	0x3ffae0158abfd41e	1.679708044042179
130	0x3fd693728b66f211	0.35274947751511926
131	0xbfb7f18afc52bbf1	-0.09352940235360997
132	0x3fc67fbdd8d448a8	0.17577336394658016
133	0xbfbcc6fb80b0bfec	-0.11241123096328892
134	0xbfcc14ca8f447e39	-0.2193844985531415
135	0xbfe233f97dfe57a6	-0.5688445530711206
136	0xbff4f1a030488222	-1.3089906583846944
137	0xbfb81e612b540ad0	-0.09421355541057186
138	0x3feaaf907b48ffd0	0.8339311988747742
139	0xbfd095639c418a1d	-0.259117987245334
140	0x3fc520c743ad1049	0.16506281666272773
141	0x3fc917ce937efd05	0.19603903009372217
142	0x3fc0b1cc4f9ac21a	0.1304259670919386
143	0x3fc2f73f1a01db59	0.14817036409268772
144	0x3fa57b770680bf31	0.0419575877607471
145	0x3fd5e8076bf1865a	0.34228692571023134
146	0x3fdc2057b6b0bbce	0.43947403756004355
147	0x3fe4b4616fd2130f	0.64701911773645
148	0x3ff26b275bde3866	1.151160582408488
149	0x3fe6dc6d3215de7d	0.7144075372916202
150	0x3ffc44bb123dad46	1.7667799675499096
151	0xbfc1082df3daa114	-0.13306211859640682
152	0x3f93b25fc492b710	0.019235130665655353
153	0x3fce5619def2d866	0.2370025957695276
154	0xbfc7c2bd22847d13	-0.18563045678545417
155	0x3fd83de71ea2a468	0.3787782477543886
156	0x3f69729653a68757	0.0031063972539450524
157	0x3fe8ca095cd69659	0.7746626675841056
158	0xbfef853893517ed1	-0.9850123288451532
159	0xbfdf71bf778045db	-0.49131762189889877
160	0x3fd69f002b69a2d3	0.35345463027492235
161	0xbfb31dbe3bc2984e	-0.07467259367931087
162	0x3fcc267e3e9854c7	0.21992471748732198
163	0xbfcd78a0b3df5612	-0.23024376662094476
164	0xbfd7b9283b0552c1	-0.37067609561681186
165	0x3fd38bd20d802d6b	0.3054089671938615
166	0x3ff4c98a65ba9346	1.299204251650012
167	0xbfb1fd2117d71fe2	-0.07026869613684952
168	0x3fc395ed3402bc8c	0.15301289596161316
169	0x3fc42da85a8a8cd0	0.15764336033780646
170	0x3fc69e1ec478f897	0.1767004451120939
171	0x3fd33112746c8693	0.2998701226189066
172	0x3fb169096960951d	0.06800898382842431
173	0x3fd1f171d4f36f67	0.28036161228168627
174	0x3fd70b4c5cb3f975	0.3600645928671818
175	0x3fdf44daf3da869d	0.4885775929816221
176	0x3fea3f8527b322c8	0.8202539229760868
177	0x3feca082bb5b2a0f	0.8945935878085168
178	0x3ff7152fc665233d	1.4426725148970967
179	0xbfb2cad4bebebf47	-0.07340745598662322
180	0x3fe0294c58ec9eb1	0.5050412880709328
181	0xbfe99898a7e4ff80	-0.7998774794759669
182	0xbfd55caad9e2fe10	-0.3337809684562396
183	0x3fd7a6d3010161ba	0.36955714319403976
184	0xbfdca9ef73fd0724	-0.44787203146926147
185	0xbfc4f97f49e86231	-0.16386405094887516
186	0x3f87c11128aea950	0.011598714880012878
187	0xbfc77b1534346c0b	-0.18344368981419765
188	0x3fef8cfb1289a017	0.9859595644056779
189	0x3fefc4b5ebbdf9b7	0.9927625278794981
190	0x3fdb3f4ed4aaa64c	0.42573900955412536
191	0x3fcfd6783e077248	0.24873259571804085
192	0x3fe646cb61be9329	0.6961419018813092
193	0xbfd214b2a9bbf7a5	-0.28251329970941647
194	0xbfb5bc9bd147d2f9	-0.08490918979061836
195	0x3fb3c832133f0dff	0.07727349252586889
196	0x3fa38be63474a899	0.03817672148063984
197	0x3fcdb112f893d3dd	0.231966372848233
198	0x3fda28ff937e8e61	0.408752340352498
199	0x3fe1ef016eb41c35	0.5604254877260987
200	0x3fd3754e8cbec256	0.304034841009558
201	0x3fd125a2db67cbc0	0.2679221289283156
202	0x3fd8ea02f2d9052c	0.38928292956923616
203	0x3fe944f565b5fabc	0.7896677958049945
204	0x3fe41cc20c2f5ffd	0.6285104978551314
205	0x3febb63b66e886ae	0.8659951219489892
206	0x3fe9e18b949f42ed	0.8087823775077517
207	0x3fd66cce410b55ff	0.3503909716795021
208	0xbfc69cf3747c41ba	-0.17666476428759187
209	0xbfe7c04a05e02dce	-0.7422227968940491
210	0x3fa2b5aba289ca81	0.03654228552922679
211	0xbfe7176ac50b7e9d	-0.721608528950998
212	0xbff12231da55bbfe	-1.0708483246523879
213	0xbfab595ffac8444b	-0.05341625152880932
214	0xbfee231b6121495f	-0.9417855164595429
215	0xbffb32a2fedc9a88	-1.699862475923199
216	0xbff51a1d81b0f040	-1.318875795942418
217	0x3fbc73b01587c3c2	0.11114025617258874
218	0xbfde1ecc0bae35f4	-0.47062970295596007
219	0x3fe71bd8ea9de3dd	0.7221493322714384
220	0x3ff0ef8403a7dac7	1.0584755080032424
221	0xbfc7a365296d8cde	-0.18467392466400318
222	0x3fd0b465f486a4c9	0.26101063613402836
223	0x3fe0c3e4f62a2ecb	0.5239128883271972
224	0x3fca7f1bdd3b22d7	0.2070040540914053
225	0x3fdc48b5b0997306	0.44193784948383585
226	0x3fe1c8ba284dff54	0.5557528292847373
227	0x3fe1a708f50b0e98	0.5516400133132775
228	0x3fe05015eebd3886	0.5097760832666303
229	0x3fd8356ec7562b61	0.37826127497162615
230	0x3fe64a10017c3083	0.6965408352857739
231	0x3fe81b41672287a7	0.7533270849564716
232	0x3fe90a928e056956	0.7825405858850825
233	0x3fe98c329edc062b	0.7983639815067297
234	0x3fd0d78285e91f31	0.26315367772302795
235	0x3fcc69e4e5c2a7b4	0.22198163241165292
236	0xbfdb4da23532373a	-0.42661338038384466
237	0xbfc05c318ff11513	-0.12781352547077826
238	0xbffa8f2cc0b61318	-1.659954788950193
239	0xbffd572dd9027e48	-1.8337839581435151
240	0x3fc97dcf019a2849	0.1991518743346339
241	0x3fe43f2f6ae8c6d2	0.6327130401679943
242	0x3fef3a728fab5994	0.9758847051660262
243	0x3ff6760c8febec57	1.403820573991444
244	0x3fda0b03063920b8	0.4069221077702525
245	0x3fb567ac83863496	0.0836131878952123
246	0x3fe7dd88c460faa3	0.7457927547000803
247	0x3ff649d5c478d1f6	1.3930261301694578
248	0xbfe0dbbfacfdbd4f	-0.5268247965558802
249	0x3ff67dfa69b3912d	1.405756390472628
250	0x3fdcda03b4452eb7	0.45080654720798513
251	0x3fe3b3a8b1aa203d	0.6156810255060986
252	0x3fce61acddcf72cd	0.23735581236441874
253	0x3fdc204c3d59a22c	0.4394713019487735
254	0x3fe8f8aa2bb8aab7	0.7803545812542642
255	0x3fe76d3b844e92ce	0.7320840438956908

biases_1 f8 [64]
0	0x400ce39ef22522a6	3.6111430089552696
1	0x3fe83896a09a5127	0.7569077622197583
2	0x3fe971fd0386d932	0.7951645916826122
3	0xbfe50094d4931cd1	-0.6563209678505705
4	0xc012d0c3e28f6d62	-4.703872241977793
5	0x40033c567ccb4627	2.404461836770469
6	0x3fc333d034988c48	0.15001871650847165
7	0xbfd27e70529c4168	-0.28896720950526467
8	0x4015e13f54a4cad8	5.469968149717452
9	0x401ee5d1b8a03ead	7.724432835369652
10	0x400995b315245e7a	3.1980954791759446
11	0x4008c90be0829203	3.098167184815112
12	0x3ffe5a91262a5fc3	1.897111081203534
13	0xc0106b24eaa6a6db	-4.104633013173692
14	0x3ff390418d11f803	1.2227187643579789
15	0x3fcbd323872c6879	0.21738094425456092
16	0x3fee25bedf47b8bf	0.9421076165142707
17	0x40164957169dc01d	5.57162127816994
18	0x4009e54df4f53e11	3.236965097173887
19	0x3fb25100ad0e564f	0.07154850220680341
20	0x3fa819fdb24787aa	0.04707329560530067
21	0x3ff294d0acac9aa2	1.1613318200194631
22	0x3ffa93ae3f9efb81	1.6610548482128424
23	0xbff008d02cc41b56	-1.0021516560243149
24	0x3ff4ed38cece5365	1.3079155042989552
25	0xbfffad49115169f6	-1.979806010864761
26	0x3fe98f32877e91d8	0.7987301489234211
27	0xbff87d5f11c9b729	-1.53060824345034
28	0x400d8801e1f77f51	3.6914098409323874
29	0x3fe6dbd96a0a9297	0.7143370696181418
30	0xbfd732b23dc1f6b9	-0.3624692538358932
31	0xc00b59c46b504bcc	-3.4188316711310787
32	0xbfe3d8441ed284ac	-0.6201496698378341
33	0x3fb2312e3754961c	0.07106293536033842
34	0x3ff4510b3e7c304c	1.2697861138176618
35	0x401909eda09dda87	6.259695539126034
36	0xbfdf58823ae21c62	-0.4897771430045791
37	0x400cded66570c764	3.6088073658983593
38	0x4021d1888b4c388a	8.909244874052337
39	0x401a94a7c543cc71	6.645171243918512
40	0xc0141e931cb379de	-5.029858063177441
41	0xbffa2cbf28534c00	-1.6359244895181746
42	0xbfc8e6ebda8f1092	-0.1945471589261883
43	0xbffed48126d8e6d2	-1.926880981204182
44	0x402101a00644da23	8.503174014954373
45	0xc00fb7fc3a857f1a	-3.9648365566244026
46	0xbff13de1fd363a35	-1.077608098133749
47	0x40149b1084c8c446	5.151430201295687
48	0x3ff6727c44964713	1.402950542371802
49	0xbffee2e8f8be7e38	-1.9303979603354389
50	0x4012405fa43f0941	4.562864843699857
51	0x4010d4126444255f	4.207101408633519
52	0x3fedec5522e58a92	0.935099189908515
53	0x3fe818e91bc74a0c	0.7530408422993005
54	0xc004a9262956ffa2	-2.582592318503843
55	0xc00850cad2198bf6	-3.039449349789261
56	0x40206e7dab76ac44	8.21580253432888
57	0x3ff7d875c3677686	1.4903466828322123
58	0xbfce8401d3ebc918	-0.23840353820521254
59	0x40292496ed3f1399	12.57146397967317
60	0x3fd0e83bc2aa08a4	0.26417440424132566
61	0xbfef61a168967bc2	-0.9806677859049773
62	0x400daf4fea9adc62	3.7106016472348964
63	0x3fe1c000cdb9396b	0.5546878831899397

weights_2 f8 [64, 64]
0	0xbfd10b5f1009929f	-0.26631905141975126
1	0xbfe5c861a51f3bc7	-0.680710623268049
2	0xbfd8c0ca4cbee4bd	-0.3867669820279607
3	0x3fffc7a8dda61029	1.9862450273658487
4	0xbfe2729b6e76ad69	-0.5764901311389795
5	0x3fe5f00341ffa972	0.6855484284435944
6	0x3fdc5dd1c1731696	0.44322627917822766
7	0x3ff155cd25199d19	1.0834475945683322
8	0x3fc38ff9e7dc35f0	0.15283130475329143
9	0xbfe555d2cb5f9caf	-0.6667264911783571
10	0x40015314551a9a54	2.1655661247962517
11	0x40135cf7683aa1e3	4.840787533358227
12	0x3fc7a9cef9c30726	0.18486964412118673
13	0xc007ff780cc42c3f	-2.9997406957022856
14	0xbfed666f4e1f857b	-0.9187542463152306
15	0xc00532ca86252eb5	-2.64980034638378
16	0xbfbc6f4ba65d5085	-0.11107323466905157
17	0xbfaead96f789cf96	-0.05991813441951803
18	0x3fd15822686d2502	0.2710042972363028
19	0x4006c7d51cbad486	2.8475744480625194
20	0x3fb462decdc4a256	0.07963364146838478
21	0xbffbf6ca06b8984d	-1.7477512609998656
22	0x3fe049507392d873	0.5089494950577901
23	0xbfe813a217297a24	-0.752396626699753
24	0x3fc26b127ab0514f	0.14389258375798383
25	0x3fc901a13e5363d0	0.19536223929642782
26	0xbfd5f056f0d5ebe8	-0.34279416579346256
27	0xc0033fe59a5d1e2c	-2.4061996516864124
28	0x3ff93456d97c7472	1.5752781386902623
29	0xbfee1c28b87b36ce	-0.940937385859536
30	0xc005dcc4ab53f465	-2.7327969918247157
31	0xc0060e6aae8abdd7	-2.757039416894013
32	0x3fc3750459eddb37	0.15200857535429588
33	0x400140a51c24056c	2.156564922189025
34	0xbfed795753c5b6e0	-0.9210621486833723
35	0x3fd886ccfc609cc5	0.3832275833723993
36	0x3fe18e9a6764605f	0.5486576098801484
37	0x400b9b2d4c8ff40b	3.450769994872194
38	0x3feda5599bb16f95	0.9264343300705941
39	0x4000758763b14497	2.0573871410820845
40	0x3ff5313e10b5574d	1.324522080676121
41	0xbff18c899e50862f	-1.0968109306489955
42	0xc000755be4a1d054	-2.057304178417363
43	0xbfcbc09dc3faf5c8	-0.21681568211890423
44	0x3ff783366fa7ed2a	1.4695343362389601
45	0x3ff870984136147c	1.527488951426931
46	0xbfcdb32fbd038bdb	-0.2320308373374179
47	0xbfd6f130b34e9346	-0.35847108374064296
48	0x3fea714aea644d99	0.8263296678509732
49	0x3fef7565e426ec1b	0.9830808120817695
50	0xbffbef779967e0e4	-1.7459636680996988
51	0x3fff85ec193a5b4a	1.9701958642451296
52	0xbfc69d8acec6dde7	-0.1766828069355448
53	0x3ffedbac04852111	1.9286308456958674
54	0x3f84bbbe13a89de9	0.010123715376791647
55	0xc00b091322420cac	-3.379431026116057
56	0xbfd18c737a3f2014	-0.2741974538625993
57	0x3fd05a04ba454e90	0.25549429121495226
58	0x3ff1792eb7a85641	1.092085568821304
59	0x4012ef7b703c7504	4.7338693177127915
60	0xc000c1ac90a043c5	-2.094567422762767
61	0x3fe88c7b84adffbf	0.7671487418556281
62	0x3fffbc5fd0125ff6	1.98348981168783
63	0x3ff99367efdd59d4	1.5984877938950506
64	0x3fc6819c2889f251	0.17583038310466972
65	0x3fc3e03b97d53fe4	0.1552805415508366
66	0x3fb58d13c34395a4	0.08418391720950652
67	0x3fc5ff00a22e5204	0.1718445579432598
68	0x3fde09a401549c26	0.46933841829235445
69	0x3fb352c6f2f995bb	0.07548182899480242
70	0x3fa7eb04636b3295	0.04671491349799798
71	0x3fb221804bba2d8a	0.07082368706521983
72	0xbfc1c5a7ade1df69	-0.13884445181224273
73	0x3fac54ee32879762	0.055335467975779165
74	0x3fd06b44d85aab2b	0.25654717567765556
75	0x3fd1b1a75cc7d499	0.2764681249676158
76	0x3fd09e67b8df7942	0.25966828397749364
77	0x3fd74702bcd01d06	0.36370914877666427
78	0x3fc92eb3aaa6d1f9	0.19673772652244262
79	0x3fb0d0923477ae78	0.06568254261918038
80	0xbfae5cb8b801c5d8	-0.05930115934541974
81	0x3fc751bf647d26de	0.18218223959620777
82	0x3fcc5f555a3aa581	0.22165934472768004
83	0x3fb3a8fa976c0f20	0.0767971629794002
84	0x3f7d544f0a46fa12	0.007160481215065422
85	0x3fd468db2dfea4da	0.3188999127547284
86	0x3fd6f05a3673e002	0.3584199458850891
87	0x3fbd174c82bca44b	0.1136367625409928
88	0x3fd2589266dd6286	0.28665599866284486
89	0x3fcbd1af774a0dd1	0.21733659100219296
90	0x3fce1ad0b283a4b5	0.23519333569064363
91	0x3fce199e910e7731	0.23515684206807344
92	0x3fa603db98d49fd3	0.042998182684015916
93	0x3fd98549acdfa3c5	0.3987602413386038
94	0x3fce6585fbd52475	0.23747324749482215
95	0x3f94b2b025080724	0.020212890873160153
96	0x3fd1d78a271b4ec9	0.27878049677859146
97	0x3fc8aa5d37c02995	0.19269910070609045
98	0x3fd6009f0f119357	0.34378792258785523
99	0x3fc2bc63b8fa953a	0.14637419254465006
100	0x3fcdf30e5fc08422	0.23397998500243583
101	0x3fce0babf63890ba	0.2347311928034566
102	0x3fd80e6d1ea628e8	0.3758805083567851
103	0x3fd6e29b39125981	0.35758095334440304
104	0x3fd4cb03885c0cb6	0.32489097896923214
105	0x3fd93aaf1ad18383	0.3942067872904362
106	0x3fdafc4c0cc3eafb	0.42164899107562775
107	0x3fdf84a14e6415ed	0.49247009902350564
108	0x3fc7c209c5ed09d5	0.1856090752062999
109	0x3fcc1eb40fa90941	0.2196869923082634
110	0x3fb7383490b1809e	0.09070137531807851
111	0x3fcc9cb5031c3c39	0.22353232051725216
112	0x3fd5dee5d08307cc	0.3417295967338958
113	0x3fa8260033c0b417	0.04716492301700031
114	0x3fd53e032ee0e900	0.3319099386022941
115	0x3fbf160bb5aeacf3	0.12143014131168055
116	0x3fc6164642d87ae3	0.1725547624964384
117	0x3fd7c86ef1e19a11	0.3716084825631763
118	0x3fc2f8787b293e35	0.148207721841105
119	0x3fbce7a6bc1a34d4	0.11290971844046577
120	0x3fd7d698900381af	0.37247289718473103
121	0x3fcd6655c61b2971	0.22968551800870388
122	0xbfa13098ce242abc	-0.03357388988850604
123	0x3fd81f63fa2c88bb	0.37691592627573883
124	0x3fc2601a56ffe7e8	0.14355782745388912
125	0x3fd74bea056d5229	0.3640084317205799
126	0x3fd787302688ff3e	0.36762622607419704
127	0x3fca844406ea3f54	0.20716142976425067
128	0xbfdad920ce7d732e	-0.4195024506096158
129	0x3fe47b1666cd4290	0.6400253303382488
130	0xbfe21f4709474d45	-0.5663180524083279
131	0x3fe41849517a4de5	0.6279646483766866
132	0x3fe0d5e3ff714d6b	0.5261096943963087
133	0xbfb05661b6bb6a6b	-0.06381808005554894
134	0x3feef33c8b330802	0.9671919554459694
135	0x3faed80f25105a4b	0.06024215056838907
136	0x3fd99f437c46381e	0.40034567962800505
137	0x3ff5061c36336985	1.3139917485446813
138	0x3ff0977e1bd91e00	1.0369855010811762
139	0x3ff74ed4146a7cc5	1.4567452237604794
140	0x3fc51bafe8275566	0.16490744434001242
141	0xbfaeb3c6bf808a38	-0.05996533477470617
142	0xbfa5496a5d429ba4	-0.041575740703869074
143	0xbfcc3ec176758e7c	-0.22066515239849938
144	0xbfbf27cfb7435139	-0.1217012236041385
145	0x3fb98f90d035c787	0.09984688838247112
146	0x3ff1fad850c167be	1.1237414507399843
147	0x400002b1222f3ec4	2.0013144179027638
148	0xbfa72367dc0a9c73	-0.04519199906399587
149	0xbfbf40677bea0347	-0.12207648062941444
150	0x3fda8bdb71a79d14	0.41478620623679885
151	0x3fd8432412b6db82	0.37909795596663554
152	0x3ff32ea4740fc40d	1.1988873037009882
153	0x3fd5a52c0cf7bd80	0.3382063032758751
154	0xbfeafb66d0f2a311	-0.8431886750232441
155	0x3fc3ec0ba90c635c	0.15564103845897648
156	0x3fe602a641bb7a7f	0.687823418029282
157	0xbff98bc1c927083d	-1.5966203553694094
158	0xbfe9cd4c501394ff	-0.8063108028406133
159	0xbfec9bbc8a60418c	-0.8940108015686277
160	0x3fd69c53abcc7f25	0.3532914331171802
161	0xbfdc04ac26c0f6cd	-0.4377851847128625
162	0x3fe519ddac64d779	0.6594074599331484
163	0x4000f5b764a08414	2.119978700779493
164	0xbfdbbff046c4268e	-0.43359000120890634
165	0x3fd3bb1c946ea6c2	0.3082953881772533
166	0x3ff64d1298abd591	1.393816563007338
167	0x3fc1296cc72825b1	0.13407668804602005
168	0xbfb56f535737719b	-0.08372994307814567
169	0xbf8e801fded766ab	-0.01489281557853713
170	0xbfe63f1547c6d4b8	-0.6952005769623133
171	0xbfb15e026744619a	-0.06784071942491324
172	0x400844543dfcd3c0	3.033363804128811
173	0xbff3467bb549c287	-1.2047078210418094
174	0xbfd1a93826b57cfc	-0.2759533288971878
175	0x3fee73606f955f8f	0.9515840701451327
176	0x3fd497936a5052a3	0.3217514551372835
177	0xbfd58761abc85432	-0.33638803268087536
178	0x3fab5a8e8f12e5f6	0.05342526909357652
179	0x3fdc4fd8fbf71a99	0.4423735104177609
180	0xbfdc221dfab3fc6e	-0.43958234293672305
181	0xbfd2840eb5677b48	-0.2893101474309572
182	0x3fba89025fa38ed5	0.10365309557851828
183	0x3f9a55ba2e8ee35f	0.02571764859360159
184	0x400769f50f08f652	2.926736943684582
185	0xbfdcf4c907afc074	-0.45244050741803865
186	0xbfc5c0c07e037339	-0.16994482186319163
187	0x3ff35edda356aa68	1.2106605892573956
188	0xbfc6d0f486e63cd4	-0.17825180613406266
189	0x3fb9187fa182d8d3	0.09803006833212473
190	0x3fe7000221351d89	0.7187510155280715
191	0xbfd0dab34ff79071	-0.263348415463276
192	0x3fbeda93304fcec7	0.12052268914686258
193	0x3fd15273f3a36b63	0.2706575278549989
194	0x3fa444c2ff964a24	0.03958711023291908
195	0x3fd087cb4d8f4932	0.258288217298417
196	0x3fd4ed62903c907d	0.32698883138278473
197	0x3fd0ccbf511ee17c	0.26249678537308063
198	0x3fc7ce31b7cf946d	0.185980047942539
199	0x3fd00b74efacb187	0.2506992664882763
200	0x3fd67e5fe6645ea3	0.35146329402184956
201	0x3fc7940977286f69	0.18420522993335034
202	0x3fd57ae17e37422b	0.3356250507904714
203	0x3fccae37d3b2dcc9	0.2240667136845558
204	0x3fd3928508211a96	0.3058178500545322
205	0x3fb4b3d911c32e5a	0.08086926158574084
206	0x3fcc2afbcefd3563	0.22006175619973609
207	0x3fa88b0c41a53e61	0.04793585110985244
208	0x3fb296a2357a9aa8	0.07261098676336053
209	0x3fc2df32333a188b	0.14743640424075397
210	0x3fc5b8e840010a8c	0.1697054207343921
211	0x3fd692162504b341	0.35266641249727476
212	0x3fc874e5debac8d7	0.191067441706372
213	0x3f98ab068d94f981	0.024089910880542135
214	0x3fd2bd0a91fa5bc0	0.2927881646696129
215	0x3fb0062e73428975	0.06259432138407368
216	0x3fb4f55f9fa1526d	0.08186910292835999
217	0x3fd8beaf37daf285	0.38663845495811017
218	0x3fd425ad19926ef7	0.31479957101122075
219	0x3fc084d5925b521f	0.1290537800438338
220	0x3fc8157641337014	0.1881549661983405
221	0x3fe003bd8118e717	0.5004565736228156
222	0xbf637cc23956ffc1	-0.0023788255154783837
223	0xbfa4f2ae4daf9e93	-0.04091400812450021
224	0x3fce71941f4bc324	0.23784114387628918
225	0x3fdb3b5b6db0a473	0.4254978724662301
226	0x3fc5e7cf772d2e5c	0.17113679236568913
227	0x3fd1497a4b67da95	0.27010972369991154
228	0x3fdaeffaf6fd4a57	0.4208972370153438
229	0x3fba08d0cc244313	0.10169701560904469
230	0x3fd7ebf7cf11beb1	0.37377734395611656
231	0x3fdcd7813dcdb0f6	0.4506533721494316
232	0x3fd67a8035d4dee7	0.3512268567751406
233	0x3fc5b2ad22ade4cd	0.16951526826213695
234	0x3fb2cd269219ea37	0.0734428507511574
235	0x3fc99a0f2876467c	0.20001401401218633
236	0x3fcbfc085758228c	0.21862892403466494
237	0x3fd2e6cf54a1533c	0.2953375174013677
238	0x3fd96637a9784fe9	0.39686385679055874
239	0x3fb7e2ebaf80fce5	0.09330628428232364
240	0x3fcbb6f0789659b2	0.2165203656010824
241	0x3fb553894a71429f	0.08330591266099895
242	0x3f5cfb20556a3247	0.00176885755141422
243	0x3fce2a4be90022e6	0.23566578747729422
244	0x3fd6314d364598a3	0.3467591314314495
245	0xbf96a6533282bbee	-0.022118854482581378
246	0x3fd90fe164fb68ad	0.3915942655709255
247	0x3fd16edd354439cd	0.27239160730178186
248	0x3fc4e744a7a6756e	0.16330774484678606
249	0x3fd0b70e0e732889	0.26117278491131707
250	0x3fd5d3843faeaf24	0.3410349485300108
251	0x3fc6eeaea7941c6c	0.1791590040449792
252	0x3fca81981104f0da	0.2070798953153659
253	0x3fc9c9efa02eb893	0.2014750988141186
254	0x3fc47d1edccfaa65	0.16006837636753626
255	0x3fd578519cb4b3c5	0.33546867659861973

biases_2 f8 [64]
0	0x3fb7e82c7742ba16	0.09338643943440447
1	0x3fd87bc09c5a28ed	0.3825532462002588
2	0x3fc32ce7a9c24d41	0.14980788983357665
3	0x3fda9bd96f5e44cd	0.41576228977016855
4	0x3fd65d8f49095e11	0.34946043140868804
5	0x3fd506e031da9cca	0.3285446631293324
6	0x3fe5d26f17b4a4d8	0.6819377387047565
7	0x3ff06d6b8681dd58	1.0267138723555345
8	0x3fe7ebe8e8ba711d	0.7475475831484207
9	0xbfae52dcda67f12b	-0.05922594228829533
10	0xbfd18ea2a2fad339	-0.2743307677840679
11	0x3fef912259947fd9	0.9864665746317726
12	0xbfde39944b7cbb47	-0.47226436015892087
13	0x3fd8865a32d55433	0.3832002159518339
14	0xbfe68cf3cf7bcd37	-0.7047061016477646
15	0xbfd2ea1cd7a7d844	-0.29553910312768417
16	0x3fd5a5ff55da2461	0.3382566774749361
17	0x3fd776afabe6c6ab	0.3666190317845614
18	0x3fd58503bb6ed5f7	0.33624356559752705
19	0x3fd4b2ad4ee6b085	0.323405577709089
20	0x3fd6246e4bc5c968	0.34597356223743825
21	0xbfe30f24745e5507	-0.5955984375783893
22	0x3fd1e916d8443844	0.2798516380288485
23	0x3fe95ddc126fa78e	0.7927074775773109
24	0x3fd91328054fd9af	0.39179420965902073
25	0x3ff2e0b99945ad5d	1.1798645007318875
26	0x3fb5f909fd1774ff	0.08583128384585235
27	0x3fdce933886a9a05	0.45173347780146883
28	0x3fc7430f8ad61492	0.1817340305243858
29	0x3fc816e899b4be95	0.188199114848875
30	0x3f82dc39e10b18fd	0.00920911043193628
31	0x3fe9c1c114a07110	0.8049016383043028
32	0xbfa71d964f8a0ab2	-0.04514760704934896
33	0x3fd9a3d00a6721da	0.40062333122162175
34	0xbfe54e69cdd51b19	-0.665821935669416
35	0x3fc56be56d16ad10	0.1673552305850099
36	0x3fe84930800c25f0	0.7589342595030626
37	0x3fba8278cb030610	0.10355334240286873
38	0x3fc34cafaa10afcf	0.15077777675594325
39	0xbfbd023c77701715	-0.11331537166560353
40	0x3fcce99e1a6b6383	0.22587944307340643
41	0x3fe8b7542faec3bd	0.7723790103246909
42	0x3fd61322ceaea0eb	0.3449179666881849
43	0x3fe4570aad05da08	0.6356252078392695
44	0x3fd62f6b88fcc3ac	0.34664429071113534
45	0x3fdad07389eb2d17	0.4189728590833552
46	0xbfe7c9f3acdae44d	-0.7434023262095565
47	0x3fb17916b69d4c0a	0.06825391729698552
48	0x3fd5e8941c2c3b53	0.34232046843765324
49	0x3fa689c7158253ff	0.04401991021692452
50	0x3fd9b2fbecb0c08a	0.4015493213110025
51	0x3fc7780f6f20a75f	0.18335144926214306
52	0x3fce5659d7d4e002	0.23701022184991422
53	0x3fe4e599a50683ab	0.6530273650315527
54	0x3fd5e3740b6f4567	0.342007647673276
55	0xbfa9153b2acaf68d	-0.04899010560391757
56	0x3fda260a7b6bdd64	0.4085718350683776
57	0x3fdc050134614a80	0.43780546298254563
58	0xbfdff2307cc4e6af	-0.4991570681046182
59	0x3fbf728c117bc21d	0.12284160067407197
60	0x3fc23e3ca48c4795	0.1425243190247413
61	0x3fd6a34c9dd92c57	0.35371699728847744
62	0x3fd6a5279c97a89b	0.35383024494388743
63	0xbfbe1a88a2d3e82f	-0.11759237265860699

weights_3 f8 [10, 64]
0	0x3fe9fa92833f1bfe	0.8118374408157931
1	0xbfe60bc2454cac42	-0.6889354089265753
2	0xbfe51165ce80917c	-0.6583737405058367
3	0xbfeabd8184fdf55e	-0.8356330487728589
4	0x3ff2e27a01dcbf89	1.1802921364542007
5	0xbff73688446cb73f	-1.4508135483587947
6	0x3fe03150b113e583	0.506019922118114
7	0xbfe17b1d7a29fd22	-0.5462787042633048
8	0x40076e3ba6686981	2.928824710904508
9	0xc002f341b3da8212	-2.368777661424482
10	0xbff831cca311a426	-1.5121580476645788
11	0xbfbb03f4941c35c6	-0.10552910438510485
12	0xbfd164c0ffc5502b	-0.2717745301972651
13	0xbfe1b0d2148f6191	-0.5528345490993606
14	0x3fdce9903d57c812	0.451755580811665
15	0xbfed8267f42bbd12	-0.9221687096559512
16	0xbff0045017a1d709	-1.001052944482071
17	0xbff443c8ce33ac55	-1.2665489249000264
18	0xbff31af0a61aaeed	-1.1940771568724202
19	0xbff3132ee8fb844d	-1.192183408820955
20	0x3fe0a3372eb8ab7a	0.5199237740065279
21	0xbffe34e191ffbdc8	-1.8879104331098109
22	0x4001fde2ecb9fe3a	2.2489679807911473
23	0xbfdf2c33d3f1e2dc	-0.4870729036115742
24	0xbff39159012f5582	-1.222985272053251
25	0xbff8717e2ef461a4	-1.5277082285084385
26	0x3ff6cb8b4d8aac16	1.4246933964702797
27	0xbfeab92ce9ec2e8f	-0.83510442436223
28	0xbff6e83068a0fd4a	-1.4316867911400828
29	0xbfeca535e3a88eb9	-0.8951672979787509
30	0xbf6084a2fa5c9d75	-0.00201637107501867
31	0x3ffa913ccad42bb2	1.6604583666801145
32	0xbff83ee73581aecf	-1.5153572168446094
33	0xbff1784704e48013	-1.0918646041027429
34	0x3ffa7c03a0cd72c3	1.655276897559063
35	0x3fe8822d5e2804e6	0.7658907736769407
36	0xbfb4f9cd367b9b9c	-0.0819366701140169
37	0x400073154e2b5faa	2.056192980478916
38	0x400666ac57ee3ff3	2.8001334065993375
39	0x3ff2d205221964e4	1.176274426650985
40	0xbfbe64ea2dbaab6b	-0.11872733704028142
41	0x400d3129cf097ce3	3.6490055250902613
42	0xbfeb1d1872e74865	-0.8473016971786477
43	0xbfeae13e1c548e0e	-0.8399954369855906
44	0xbff3b8e6d156a200	-1.2326419999391192
45	0x40004f9e9191b1f8	2.038876664408459
46	0xbff63fc0b65da1fc	-1.3905646442091202
47	0x3ff69a63c580ea31	1.4126928057654704
48	0xbfe543fbf0ddab10	-0.6645488457118933
49	0xc0085d0cb69897e0	-3.045434404880311
50	0xbfe52e9fdefe97c4	-0.6619414668427841
51	0x3ff55713a7174156	1.3337589766488995
52	0x3fe62b339543445e	0.6927736201561279
53	0xbfc56c2551200b03	-0.16736284695806355
54	0x3ff232aa057fd463	1.1373691763704066
55	0x3ff1762e6101b604	1.091352824146612
56	0xbff1f53d4375af63	-1.1223728785652944
57	0xbfef0bddbafc878c	-0.9701985027388544
58	0xc0027bdd5ee39e95	-2.310480824777026
59	0xbff9985b7ea1e34a	-1.5996966311051488
60	0xbfc91eb5b6d5374d	-0.19624968936335066
61	0xbff053bff29e4921	-1.0204467274930453
62	0xbff189b92cebcf15	-1.0961238627177796
63	0xbff913895ff9696b	-1.5672696827883452
64	0xbff72570b88ce775	-1.4466407021522774
65	0xbfc0086cc75ddd77	-0.12525710806560728
66	0xbfcb59b0d4ccf4ef	-0.21367464438109304
67	0xbfd7c73d6d9f0f77	-0.3715356417198942
68	0x3fb6604dda869429	0.08740698418712668
69	0xbfcf2a58f6ec6540	-0.24347984368140807
70	0x3fd00303730d5591	0.2501839278750931
71	0xbfea5bd90c7faf15	-0.8237118953815946
72	0x3ff06d48e6d68058	1.0266808526139553
73	0x3ff02a516040fb48	1.0103315124431038
74	0x3ff294aa51eebd02	1.161295242356403
75	0xbfe1c2b3bf845d62	-0.5550173512046224
76	0xbff88a13ae520c1c	-1.533710175456469
77	0xbfbf6338ff5db40d	-0.12260776743433173
78	0xbfc2b1839e00cb99	-0.1460423013209862
79	0xbfb7a2ec2534252a	-0.09232974918645157
80	0xbfd5fb27f61e4ecf	-0.3434543517589476
81	0x3fcbca83a4c4b64d	0.21711774392444952
82	0x3f6d3b11bed73676	0.003568205508350182
83	0x3fe1359b9aa73fe2	0.537793924386275
84	0x3ffc195f2ecf9724	1.7561942890692501
85	0x3fe18005fa5fc654	0.5468778505439311
86	0xc006e9c0b0fd03ac	-2.8641370608533716
87	0x3f807942a126df9c	0.008043785613025815
88	0xbfb71d8f76df88cc	-0.09029480602433465
89	0x3fc7f3ab3761357c	0.187123682061081
90	0x3ffd7e657a8a2f6e	1.8433584963522338
91	0x3fd192fe6e41343f	0.2745967938142861
92	0xbfd96b9773b757d2	-0.39719187069328854
93	0xbfe7306524c1369a	-0.7246576040140156
94	0x3fdd876929469501	0.4613898184855572
95	0xbffd29e39a3b17d5	-1.8227268242494479
96	0x3fe1c6497bd35713	0.555454961630604
97	0xbfe2cfc33c9523b4	-0.587861650777191
98	0x3ff174a849c708ea	1.0909808046276859
99	0xc00469d61e4a8403	-2.5516779295435312
100	0xbffe5fee7d83132a	-1.8984208014309822
101	0x3fb13b16a662aefd	0.06730786859651157
102	0x40001ba70da99542	2.0135022227647434
103	0x3ff465e5d62b342f	1.2748773923842796
104	0xc002e36c6e6b25e9	-2.361046660084629
105	0xc015d598a082cec4	-5.458590038284175
106	0xbfe839d6b592eed0	-0.7570603891722048
107	0x3fd9843984097ea4	0.3986953534531301
108	0x3fc89b6739949b68	0.19224252997920677
109	0xbfd769010be7eaad	-0.36578394091308547
110	0xbfa32e4e45d48560	-0.037462659858884306
111	0xbfd22bf8d5868e18	-0.283933838387584
112	0x3fc52caf98830afb	0.1654262060820527
113	0xbfc975038d92cf50	-0.19888348019378066
114	0xbfc2af9675eb9723	-0.14598351247621463
115	0x4010cc060ee131e6	4.19924185990792
116	0xc002faadf0131f51	-2.372402072509353
117	0x3fc8e06249c744b3	0.19434765436611698
118	0xbff1c5e3b834b859	-1.1108128734154177
119	0x40057bd8ace15850	2.685471869112952
120	0xbfd96b778ca11c3b	-0.3971842645009393
121	0xbfe43e8e7917a8b1	-0.6326362958036694
122	0x3ff1ac00a54bf9d3	1.1044928032784938
123	0x3ff215071f1193ed	1.1301337445850053
124	0x3fffed04cfcb0b26	1.99536591691203
125	0xbf9f5e645f0bad68	-0.030633514691471048
126	0xbfd3eabece44b7f9	-0.31120271819497664
127	0xbfa68808f6cc6ef7	-0.044006614805963844
128	0xbfe6f9e39772d4a5	-0.7180040319423325
129	0xbff091793d63d2bb	-1.0355160139126116
130	0x3ff19d2731fd9467	1.1008674576526347
131	0xbff44dab1a9d7b98	-1.2689620055823294
132	0xbffc48724c78b633	-1.7676871287507196
133	0xbfe612d3384dbf72	-0.6897979831391992
134	0x3ffc628a69f33f9b	1.7740577830008764
135	0xbfee70952a73b017	-0.9512430028094084
136	0xbff1d1ea68a4067c	-1.1137489402321128
137	0x400390655a3a58ec	2.445505814462299
138	0x3fe6d080a12cbba5	0.7129519603675943
139	0xc002286c5dcf4b08	-2.2697379425893622
140	0xbfea7d81767b90f2	-0.8278205217470982
141	0xbfee3da0587632cc	-0.9450227477805924
142	0x3febee8990312fec	0.8728683296444593
143	0xbfc957b965ba6cbf	-0.19798963038633663
144	0xbfeed5260fbbbadc	-0.9635191256801039
145	0xbfefdabddab70d5c	-0.9954518577364229
146	0xbff41518216705e8	-1.2551499657423566
147	0xc00119c05510c419	-2.1375738759748057
148	0xbfd8d1e52fc1884c	-0.38781098998709207
149	0x4012d3094ba7ecca	4.706090147136999
150	0x3ffc1004cf297ad5	1.7539108364359681
151	0xbffa11079809a88a	-1.6291576327298878
152	0xbfecfa2aec507567	-0.9055380454553131
153	0xc007300e7aa20c97	-2.898465116567944
154	0x40004019de2bab90	2.031299339015682
155	0xbfeaddb5e17369af	-0.8395642665230322
156	0x3fe5480b482bae38	0.6650444421370088
157	0xbffc9284dcd935e1	-1.7857712389844596
158	0x3fb02e98938b7b13	0.06321099855584249
159	0x3fefd103564f9bda	0.9942642865906877
160	0xbff3c3c00246fbb3	-1.235290535827272
161	0xbff43a59e2a92c3e	-1.2642458776415562
162	0x3ffc4f503c0fe23c	1.769363627068869
163	0xbfd073f3e267dae9	-0.25707718954019626
164	0xbff2392527c89c74	-1.138951449780305
165	0x40014da8eeeda7ce	2.1629198709751796
166	0x40090fb376a9b2b5	3.132666518262648
167	0x3fe66c8605a2f9ce	0.70074750042823
168	0xbfe2b118c6871a02	-0.5841182591910299
169	0x4011de8c40041989	4.467331886530141
170	0xbfea1ad86ab161b5	-0.8157770236821792
171	0xbff932318ffaa658	-1.574754297655451
172	0xbfec469094f1709e	-0.8836138638539699
173	0x3fd1b4d6a4a655bd	0.27666250304295287
174	0x3ff6514cbcb71db4	1.394848572892312
175	0x3ff164a28e504e43	1.087069087899082
176	0xbfeb772f68df6812	-0.8582989738745275
177	0xbfd9a0d502ee5e36	-0.40044141088717156
178	0xbfec64c2c5fa33d3	-0.8872999064202481
179	0xc004cfb24f019b71	-2.6014143154492833
180	0xbfc1b462e637d485	-0.13831745377652652
181	0x3febc25544d157ac	0.8674722999664843
182	0xbff7c63a380f6f4d	-1.4858953657012137
183	0xbfffa154d9d96c1e	-1.9768875608194842
184	0xbfd1466fde484fb1	-0.2699241324164588
185	0xbfe10430abde7216	-0.5317614895644194
186	0xbfcc30d3cd1a68b2	-0.22024009241869674
187	0x3fe52656684f28af	0.6609298741616579
188	0x3ff1d2ee4217758c	1.1139967519478402
189	0xbfee140b51046e8f	-0.9399468023652434
190	0xbff1c43d9bb44556	-1.110410316676583
191	0x3feb5dd22ea328f4	0.8552027617345446
192	0x3ff33b457ad54ec0	1.2019705579922828
193	0xbffe37de0b3b51a2	-1.8886394919146388
194	0xbfd02c0a4f7ab91f	-0.25268800508173855
195	0xbffa47ca8058df80	-1.6425271047173453
196	0x3f9879e90df9655e	0.02390255115310446
197	0xbffdf969ba27d539	-1.8733918449118632
198	0xbfee7efaee5e876c	-0.9530005126618852
199	0xbfdd56eb53a6104c	-0.45843012970749863
200	0xc0093a616990acc0	-3.1535061118389365
201	0x3fa5fa00b58abd25	0.04292299476707687
202	0x3fe606b53a48ef9b	0.6883188379647324
203	0x3ff1bdd8aafd2a22	1.108849208760724
204	0x3ff6744fec1cd4b2	1.4033965323590505
205	0xbff73443c60a9048	-1.450259946440399
206	0x3fb6f22d4f7d7693	0.08963282766986884
207	0x3feb65c5462c4d2f	0.8561731691901623
208	0xbffcfec60b1126bb	-1.8122005874924259
209	0xbff96682bfd48372	-1.5875270360340576
210	0xbff969c4c8aa8665	-1.5883224333305404
211	0xbfe9ab05015675c5	-0.8021264101150157
212	0xbffde2fa4404e26d	-1.8679144532199203
213	0xbff461d5734d5bb5	-1.2738852027884893
214	0x40081e0578b40122	3.014658873551654
215	0xbff1d7fd156002ac	-1.1152315936052828
216	0xbfff1d79cb28fca1	-1.9446962295476526
217	0x3fede2ca90adcc1e	0.9339344812164005
218	0x400f64387773592b	3.9239358264996063
219	0xbfc9338bbe2246f9	-0.19688555511361708
220	0x4008440958b91459	3.0332209521753097
221	0x3ff41d64924f6694	1.2571759906044564
222	0x3fde8ffee30b68cd	0.4775387971145733
223	0xbff84339b5d60269	-1.516412458702826
224	0x40023dfc8f1b4603	2.280266874332257
225	0x3ff7cc132fd54413	1.4873229855040833
226	0x3fe0176a7990d0ec	0.5028583883600084
227	0x400141e97ec80c41	2.1571836380767597
228	0x400b504cb3669b1a	3.4142087951362443
229	0xbfe0b8c33cfd8117	-0.5225540343490448
230	0x3ffed8d59073e974	1.927938045757938
231	0x40009093d0946ede	2.0705944342897586
232	0x3fee3241f03e76c0	0.9436349575296035
233	0x40079eb25a21bef6	2.9524886170910305
234	0xbff6b7833b051f8f	-1.4198028855771303
235	0xbfd90422e48cecff	-0.3908774597109214
236	0xbffaa10578db98b0	-1.6643118592269666
237	0xbff1e6e2a654ec5f	-1.1188684937794944
238	0xbff2747eae5c9e49	-1.1534411250121528
239	0xc0012296585d4011	-2.141888323159954
240	0xbffbe83e406a794c	-1.7441999927755942
241	0x4002f5a20af91e86	2.3699379784846455
242	0xbffa814cee7c202f	-1.6565675082984048
243	0x3fe2dbdef0696918	0.5893397040884194
244	0x40092f10ad3cbaab	3.14798102704602
245	0x3fd29914e0621c18	0.2905933562510099
246	0x3fc061b854a4dd11	0.1279821790028355
247	0x3ffec1c3aeee3b7e	1.9223057587839487
248	0xc002ae56b099ee14	-2.3351262852645593
249	0xbffc35d95e7c7916	-1.7631467524402686
250	0x3fd12232d6929a3a	0.26771231607782264
251	0xbfe69a491caeccec	-0.7063336906634539
252	0x40029ba7218e0a20	2.3260023709747344
253	0xbffd3b7092064772	-1.8270116523821938
254	0xbff4a0afe4fc7167	-1.289230246045088
255	0xbff720dd48b272c7	-1.4455235328415925

biases_3 f8 [10]
0	0xbff150d585ccc46b	-1.08223488107276
1	0xbfbed117deb58d71	-0.12037800967441627
2	0xbff03e6bff9f2329	-1.0152397141666347
3	0xbffc50d021249f1b	-1.7697297377253054
4	0xbff38cf4ca2da87a	-1.2219131372062564
5	0xbfecfcee81385c68	-0.9058754466849566
6	0xbff90a1157670e41	-1.5649579443132924
7	0xbfc047ce6dc5a5ef	-0.12719135627712272
8	0xbfe1b50bef0945e4	-0.5533504170109009
9	0xbfd58bdf8ef0d14c	-0.33666218718578445
