fashion_mnist_model.npz (npz, 448686 bytes, 7 tensors)

biases_0 f8 [784]
00000000: 0000 0000 0000 0000 0000 0000 0000 0000
00000010: 0000 0000 0000 0000 0000 0000 0000 0000
00000020: 0000 0000 0000 0000 0000 0000 0000 0000
00000030: 0000 0000 0000 0000 0000 0000 0000 0000
00000040: 0000 0000 0000 0000 0000 0000 0000 0000
00000050: 0000 0000 0000 0000 0000 0000 0000 0000
00000060: 0000 0000 0000 0000 0000 0000 0000 0000
00000070: 0000 0000 0000 0000 0000 0000 0000 0000
00000080: 0000 0000 0000 0000 0000 0000 0000 0000
00000090: 0000 0000 0000 0000 0000 0000 0000 0000
000000a0: 0000 0000 0000 0000 0000 0000 0000 0000
000000b0: 0000 0000 0000 0000 0000 0000 0000 0000
000000c0: 0000 0000 0000 0000 0000 0000 0000 0000
000000d0: 0000 0000 0000 0000 0000 0000 0000 0000
000000e0: 0000 0000 0000 0000 0000 0000 0000 0000
000000f0: 0000 0000 0000 0000 0000 0000 0000 0000
00000100: 0000 0000 0000 0000 0000 0000 0000 0000
00000110: 0000 0000 0000 0000 0000 0000 0000 0000
00000120: 0000 0000 0000 0000 0000 0000 0000 0000
00000130: 0000 0000 0000 0000 0000 0000 0000 0000
00000140: 0000 0000 0000 0000 0000 0000 0000 0000
00000150: 0000 0000 0000 0000 0000 0000 0000 0000
00000160: 0000 0000 0000 0000 0000 0000 0000 0000
00000170: 0000 0000 0000 0000 0000 0000 0000 0000
00000180: 0000 0000 0000 0000 0000 0000 0000 0000
00000190: 0000 0000 0000 0000 0000 0000 0000 0000
000001a0: 0000 0000 0000 0000 0000 0000 0000 0000
000001b0: 0000 0000 0000 0000 0000 0000 0000 0000
000001c0: 0000 0000 0000 0000 0000 0000 0000 0000
000001d0: 0000 0000 0000 0000 0000 0000 0000 0000
000001e0: 0000 0000 0000 0000 0000 0000 0000 0000
000001f0: 0000 0000 0000 0000 0000 0000 0000 0000
00000200: 0000 0000 0000 0000 0000 0000 0000 0000
00000210: 0000 0000 0000 0000 0000 0000 0000 0000
00000220: 0000 0000 0000 0000 0000 0000 0000 0000
00000230: 0000 0000 0000 0000 0000 0000 0000 0000
00000240: 0000 0000 0000 0000 0000 0000 0000 0000
00000250: 0000 0000 0000 0000 0000 0000 0000 0000
00000260: 0000 0000 0000 0000 0000 0000 0000 0000
00000270: 0000 0000 0000 0000 0000 0000 0000 0000
00000280: 0000 0000 0000 0000 0000 0000 0000 0000
00000290: 0000 0000 0000 0000 0000 0000 0000 0000
000002a0: 0000 0000 0000 0000 0000 0000 0000 0000
000002b0: 0000 0000 0000 0000 0000 0000 0000 0000
000002c0: 0000 0000 0000 0000 0000 0000 0000 0000
000002d0: 0000 0000 0000 0000 0000 0000 0000 0000
000002e0: 0000 0000 0000 0000 0000 0000 0000 0000
000002f0: 0000 0000 0000 0000 0000 0000 0000 0000
00000300: 0000 0000 0000 0000 0000 0000 0000 0000
00000310: 0000 0000 0000 0000 0000 0000 0000 0000
00000320: 0000 0000 0000 0000 0000 0000 0000 0000
00000330: 0000 0000 0000 0000 0000 0000 0000 0000
00000340: 0000 0000 0000 0000 0000 0000 0000 0000
00000350: 0000 0000 0000 0000 0000 0000 0000 0000
00000360: 0000 0000 0000 0000 0000 0000 0000 0000
00000370: 0000 0000 0000 0000 0000 0000 0000 0000
00000380: 0000 0000 0000 0000 0000 0000 0000 0000
00000390: 0000 0000 0000 0000 0000 0000 0000 0000
000003a0: 0000 0000 0000 0000 0000 0000 0000 0000
000003b0: 0000 0000 0000 0000 0000 0000 0000 0000
000003c0: 0000 0000 0000 0000 0000 0000 0000 0000
000003d0: 0000 0000 0000 0000 0000 0000 0000 0000
000003e0: 0000 0000 0000 0000 0000 0000 0000 0000
000003f0: 0000 0000 0000 0000 0000 0000 0000 0000
00000400: 0000 0000 0000 0000 0000 0000 0000 0000
00000410: 0000 0000 0000 0000 0000 0000 0000 0000
00000420: 0000 0000 0000 0000 0000 0000 0000 0000
00000430: 0000 0000 0000 0000 0000 0000 0000 0000
00000440: 0000 0000 0000 0000 0000 0000 0000 0000
00000450: 0000 0000 0000 0000 0000 0000 0000 0000
00000460: 0000 0000 0000 0000 0000 0000 0000 0000
00000470: 0000 0000 0000 0000 0000 0000 0000 0000
00000480: 0000 0000 0000 0000 0000 0000 0000 0000
00000490: 0000 0000 0000 0000 0000 0000 0000 0000
000004a0: 0000 0000 0000 0000 0000 0000 0000 0000
000004b0: 0000 0000 0000 0000 0000 0000 0000 0000
000004c0: 0000 0000 0000 0000 0000 0000 0000 0000
000004d0: 0000 0000 0000 0000 0000 0000 0000 0000
000004e0: 0000 0000 0000 0000 0000 0000 0000 0000
000004f0: 0000 0000 0000 0000 0000 0000 0000 0000
00000500: 0000 0000 0000 0000 0000 0000 0000 0000
00000510: 0000 0000 0000 0000 0000 0000 0000 0000
00000520: 0000 0000 0000 0000 0000 0000 0000 0000
00000530: 0000 0000 0000 0000 0000 0000 0000 0000
00000540: 0000 0000 0000 0000 0000 0000 0000 0000
00000550: 0000 0000 0000 0000 0000 0000 0000 0000
00000560: 0000 0000 0000 0000 0000 0000 0000 0000
00000570: 0000 0000 0000 0000 0000 0000 0000 0000
00000580: 0000 0000 0000 0000 0000 0000 0000 0000
00000590: 0000 0000 0000 0000 0000 0000 0000 0000
000005a0: 0000 0000 0000 0000 0000 0000 0000 0000
000005b0: 0000 0000 0000 0000 0000 0000 0000 0000
000005c0: 0000 0000 0000 0000 0000 0000 0000 0000
000005d0: 0000 0000 0000 0000 0000 0000 0000 0000
000005e0: 0000 0000 0000 0000 0000 0000 0000 0000
000005f0: 0000 0000 0000 0000 0000 0000 0000 0000
00000600: 0000 0000 0000 0000 0000 0000 0000 0000
00000610: 0000 0000 0000 0000 0000 0000 0000 0000
00000620: 0000 0000 0000 0000 0000 0000 0000 0000
00000630: 0000 0000 0000 0000 0000 0000 0000 0000
00000640: 0000 0000 0000 0000 0000 0000 0000 0000
00000650: 0000 0000 0000 0000 0000 0000 0000 0000
00000660: 0000 0000 0000 0000 0000 0000 0000 0000
00000670: 0000 0000 0000 0000 0000 0000 0000 0000
00000680: 0000 0000 0000 0000 0000 0000 0000 0000
00000690: 0000 0000 0000 0000 0000 0000 0000 0000
000006a0: 0000 0000 0000 0000 0000 0000 0000 0000
000006b0: 0000 0000 0000 0000 0000 0000 0000 0000
000006c0: 0000 0000 0000 0000 0000 0000 0000 0000
000006d0: 0000 0000 0000 0000 0000 0000 0000 0000
000006e0: 0000 0000 0000 0000 0000 0000 0000 0000
000006f0: 0000 0000 0000 0000 0000 0000 0000 0000
00000700: 0000 0000 0000 0000 0000 0000 0000 0000
00000710: 0000 0000 0000 0000 0000 0000 0000 0000
00000720: 0000 0000 0000 0000 0000 0000 0000 0000
00000730: 0000 0000 0000 0000 0000 0000 0000 0000
00000740: 0000 0000 0000 0000 0000 0000 0000 0000
00000750: 0000 0000 0000 0000 0000 0000 0000 0000
00000760: 0000 0000 0000 0000 0000 0000 0000 0000
00000770: 0000 0000 0000 0000 0000 0000 0000 0000
00000780: 0000 0000 0000 0000 0000 0000 0000 0000
00000790: 0000 0000 0000 0000 0000 0000 0000 0000
000007a0: 0000 0000 0000 0000 0000 0000 0000 0000
000007b0: 0000 0000 0000 0000 0000 0000 0000 0000
000007c0: 0000 0000 0000 0000 0000 0000 0000 0000
000007d0: 0000 0000 0000 0000 0000 0000 0000 0000
000007e0: 0000 0000 0000 0000 0000 0000 0000 0000
000007f0: 0000 0000 0000 0000 0000 0000 0000 0000
0.0 0.0 0.0 0.0 0.0 0.0 0.0 0.0
0.0 0.0 0.0 0.0 0.0 0.0 0.0 0.0
0.0 0.0 0.0 0.0 0.0 0.0 0.0 0.0
0.0 0.0 0.0 0.0 0.0 0.0 0.0 0.0
0.0 0.0 0.0 0.0 0.0 0.0 0.0 0.0
0.0 0.0 0.0 0.0 0.0 0.0 0.0 0.0
0.0 0.0 0.0 0.0 0.0 0.0 0.0 0.0
0.0 0.0 0.0 0.0 0.0 0.0 0.0 0.0
0.0 0.0 0.0 0.0 0.0 0.0 0.0 0.0
0.0 0.0 0.0 0.0 0.0 0.0 0.0 0.0
0.0 0.0 0.0 0.0 0.0 0.0 0.0 0.0
0.0 0.0 0.0 0.0 0.0 0.0 0.0 0.0
0.0 0.0 0.0 0.0 0.0 0.0 0.0 0.0
0.0 0.0 0.0 0.0 0.0 0.0 0.0 0.0
0.0 0.0 0.0 0.0 0.0 0.0 0.0 0.0
0.0 0.0 0.0 0.0 0.0 0.0 0.0 0.0
0.0 0.0 0.0 0.0 0.0 0.0 0.0 0.0
0.0 0.0 0.0 0.0 0.0 0.0 0.0 0.0
0.0 0.0 0.0 0.0 0.0 0.0 0.0 0.0
0.0 0.0 0.0 0.0 0.0 0.0 0.0 0.0
0.0 0.0 0.0 0.0 0.0 0.0 0.0 0.0
0.0 0.0 0.0 0.0 0.0 0.0 0.0 0.0
0.0 0.0 0.0 0.0 0.0 0.0 0.0 0.0
0.0 0.0 0.0 0.0 0.0 0.0 0.0 0.0
0.0 0.0 0.0 0.0 0.0 0.0 0.0 0.0
0.0 0.0 0.0 0.0 0.0 0.0 0.0 0.0
0.0 0.0 0.0 0.0 0.0 0.0 0.0 0.0
0.0 0.0 0.0 0.0 0.0 0.0 0.0 0.0
0.0 0.0 0.0 0.0 0.0 0.0 0.0 0.0
0.0 0.0 0.0 0.0 0.0 0.0 0.0 0.0
0.0 0.0 0.0 0.0 0.0 0.0 0.0 0.0
0.0 0.0 0.0 0.0 0.0 0.0 0.0 0.0

weights_1 f8 [64, 784]
00000000: 67dc b476 fe35 a83f 645c 4fe9 d51c b03f
00000010: 7aa9 b0e8 745c 9fbf fdb2 0a2a d261 afbf
00000020: 6569 0f6d 29f8 b83f 3357 cee2 a4ea 81bf
00000030: cd10 372e 7421 ba3f 4a62 e634 5d15 c03f
00000040: 2774 91ae 5a4c ae3f ffff be74 504f b9bf
00000050: 4423 4588 f0a9 c1bf b549 bfc0 f668 dfbf
00000060: 906b f0ae 2426 dbbf 77ef 4759 0ac5 e8bf
00000070: bdc4 99d3 3218 e5bf 8eb4 75a9 4f2a c9bf
00000080: 8530 402e 84b3 ccbf bc8b d586 6cad debf
00000090: b396 3de4 cf1f adbf fdc6 b305 1070 9f3f
000000a0: dd0a 2ab9 4193 b43f 1a18 6c2a e27a a6bf
000000b0: 2eec ada0 3867 b93f 4694 16c5 5f1b a9bf
000000c0: aaf9 a44b 3e3c 92bf c329 8928 6606 b0bf
000000d0: 1795 65f1 f5f8 aebf e0d7 1134 7fe9 90bf
000000e0: 2080 4c1b 779f af3f dd72 5081 22b5 b53f
000000f0: 58cb 495e 5d4c a93f 061d b3ff ba98 83bf
00000100: 8261 9ce4 e0b4 9a3f 0c4b 28b4 6823 713f
00000110: 3160 666b 720d a53f e477 bcbb 7581 c33f
00000120: 2989 9950 458a a3bf 30c1 a94c f4c9 cbbf
00000130: 4c56 955c 27d8 c7bf 9ec8 0bf1 e0e4 d6bf
00000140: d10d c4d2 316a a5bf 6347 3473 962b d7bf
00000150: dcc9 f60c 97b7 e0bf 6acf 820c dbe9 c6bf
00000160: 6da9 3273 1039 d9bf a542 afd0 c6ae e6bf
00000170: c1bb b85f e8c5 d7bf db79 e75b 986f c5bf
00000180: ea61 3e2b 7844 d13f 9d5c 20bb d954 d23f
00000190: f5c7 04a2 f976 bebf 7c24 ddf6 ebfa a63f
000001a0: eb25 d1f1 651d b5bf fd65 d29e 9a1c b8bf
000001b0: b101 f8d4 c7c8 7b3f 67a9 64d1 0f08 b5bf
000001c0: c704 92a5 c3bb 95bf 581a 9472 fd9b 833f
000001d0: 5e0f 6ed6 8dc8 96bf d5f0 d39b a9a2 90bf
000001e0: cd10 e360 236c 763f 7214 cfba 6964 a93f
000001f0: 36d1 2ed6 10a1 ed3e 1300 d66c 489e ce3f
00000200: c70f a3d7 a1f3 de3f 8866 37ae 84f1 cc3f
00000210: 5cd0 70cb 4183 e03f 6944 0892 320e b83f
00000220: 5b10 ebc3 3cdd 9fbf fa9b 8f31 3e39 bdbf
00000230: ad9d 7aee 7194 e7bf 5277 aa85 3016 d3bf
00000240: 5980 dbad 15d7 b43f 2b34 f578 8999 d13f
00000250: 8354 8c9b 4163 dd3f 052f 3f46 e0f9 df3f
00000260: 474e 0579 3fd4 e23f eccc 65d8 2c93 e43f
00000270: 239c 5007 a0b9 de3f fb35 7205 d87f a8bf
00000280: 5f19 d001 53d8 b5bf 90b3 d5cb 55f7 b53f
00000290: c212 ab88 f064 b13f 852c 624c 1af5 a8bf
000002a0: ec62 cda8 50b0 af3f baec 3543 96c2 b8bf
000002b0: 9db8 04bb ae9b b23f cb6e b626 07bf 873f
000002c0: c608 7583 d67c 94bf 7f18 3e8a 90f4 bb3f
000002d0: 8c23 fa37 a14b cb3f b699 240b 2bde e63f
000002e0: b335 1a2d f7d8 e33f 3d7d ca33 01b7 a83f
000002f0: 4961 6a25 4a43 c7bf a3a9 6273 48af a63f
00000300: e19c 180b ede2 b6bf 605d de90 20c7 bbbf
00000310: f160 152c 0eb9 aabf c3e4 b0cb 8a25 d2bf
00000320: 8a2b 5c86 61e8 cfbf 8ef7 268b 83ef c3bf
00000330: 1ad8 2a62 7785 c83f ad7c e853 2045 e53f
00000340: 7dec 74b1 8b92 e63f c386 2aa3 e66f e63f
00000350: cfe8 1514 3a4b e33f 8a5a c877 5bc3 e03f
00000360: 3819 efbf 4b58 bf3f faa9 28f9 7df7 a43f
00000370: bbd1 2531 47ce 80bf dd8f e12e cf93 b83f
00000380: ad94 e73f a0e7 86bf 43d8 f4c9 305f 89bf
00000390: 2349 4713 0379 653f 081f 3b91 ced7 b83f
000003a0: e835 9db2 109f 873f b42f 9381 a9b7 723f
000003b0: 8195 e016 45ae d93f b159 8e32 6ae0 db3f
000003c0: 7f11 9698 6600 863f 9e4b dba0 d2fa bebf
000003d0: 4ea6 cc21 7fb0 ccbf 7143 5f2b 8da1 bd3f
000003e0: ed15 6357 f436 c6bf ef46 0853 a59d c4bf
000003f0: 4889 316c ef5c b53f 9ee9 18e4 fb99 b23f
00000400: a452 f702 0ee7 d4bf 3e40 6f1a 7f1d c5bf
00000410: 7b36 a340 e982 cd3f d52e 31b3 5896 bbbf
00000420: 6422 8878 1b6a d03f 28ec 4049 e8c9 e53f
00000430: 1313 51d6 4a53 e73f e619 0a94 b8a7 e03f
00000440: e5a9 7696 6dff d03f e528 f096 8362 c93f
00000450: 4505 a27e bd1d acbf 51b9 8cde 4811 abbf
00000460: 02b1 246a 18bc b0bf 1814 8fd1 5ec4 a23f
00000470: 46fa 99d2 85de a23f aeb4 2902 ac9f 9dbf
00000480: 5c70 ca35 81ae b33f 4f91 aa3d de95 463f
00000490: 5360 7d79 e41b 9fbf adef 1f28 c034 d03f
000004a0: b91b 4a56 3bac b53f 6e2c 5849 b4c4 c1bf
000004b0: dcf9 c6ae dd2d c13f ceba 8e67 5ca1 8a3f
000004c0: f172 0b6f 93cb c73f acec 5353 75d1 c8bf
000004d0: aabd ef1f b96b cabf 2c8c e704 7738 e03f
000004e0: 85b9 5b89 fe2c dbbf 28f4 a79d f4f6 cabf
000004f0: 0027 768c d963 bbbf e18f 1b1b be66 65bf
00000500: ca35 c98d 4cb1 dc3f cdb7 d0ce 45cd e33f
00000510: de36 3fdc d2d1 e03f 16ce b168 8a2b ca3f
00000520: 455a d013 d2e0 ad3f 8569 3a10 84ea d33f
00000530: 1753 05b9 0418 80bf fb36 69c1 0259 bdbf
00000540: a8fe 9ebe 71cc 63bf f93a b705 f81f 83bf
00000550: 9802 8401 f3c8 bd3f 27cc 5c79 fe6e a0bf
00000560: c02f e05a c2d5 c0bf 1760 3f40 d1eb d3bf
00000570: d734 ba3c 23c1 c4bf 215e 893b eecc c73f
00000580: 10d5 205c 88e5 bd3f d241 aa2e f211 bcbf
00000590: 5158 1b68 31f1 c6bf 1137 a499 3ccf cebf
000005a0: 1963 7be2 9cf3 763f 3277 6d54 3393 d1bf
000005b0: 0038 3a3e d541 93bf d5ad 6e61 850a b43f
000005c0: c339 82c8 c740 dbbf 3059 adbd f372 a5bf
000005d0: 9549 986f 68eb 7a3f ce7c 664a f6eb ba3f
000005e0: 6259 ae97 1082 cc3f 68f8 298d 9db0 dd3f
000005f0: dc97 5350 41e2 b93f 9eb7 23e0 abb3 c23f
00000600: cc19 c312 e981 c23f 69d6 568e 9036 d13f
00000610: 7db3 f7cb 5ce1 cbbf 67f7 1592 1897 a2bf
00000620: 4b85 3792 f195 b4bf c162 f3cd 2201 bc3f
00000630: ff74 845c f5b5 c23f f69c 2ad7 24b2 b8bf
00000640: 9c38 336f 78bc cbbf 6217 7a95 04ce cbbf
00000650: 34dd 52c5 e4ba d0bf 2dbe 9e32 d1a3 d23f
00000660: 1ccd 3d3f a19b ce3f 64cb 4518 05e8 ce3f
00000670: 7a6d 95a8 3d39 b5bf fae8 3849 bd95 c8bf
00000680: 114c 765d ae5a c03f 0594 d329 60fc d03f
00000690: c84c 9499 49ad ca3f 8bcd 01a6 6890 e43f
000006a0: 3e82 a30a 6c86 c4bf c46d 69cb 40cf c3bf
000006b0: 07f7 9b28 ac6c c4bf d355 5a98 c64a c83f
000006c0: 1c4a 40f1 5188 cd3f 5a39 7ccd af47 dd3f
000006d0: 7c71 0513 800c abbf 8c5e 9ff8 249c c23f
000006e0: 25c1 81fe 49c0 c2bf fee6 49ac 1266 d23f
000006f0: 0c22 dc15 490b c43f 84d6 ecc0 dba7 a6bf
00000700: 636c 5d45 0901 6d3f 020e ae31 1639 9fbf
00000710: a062 9684 55c5 b43f ed24 afef 30c8 c3bf
00000720: edcf e4ab 295b c8bf 0eb8 74b6 6df6 d5bf
00000730: f4ec 9048 0e1b d0bf 6d98 56db 6135 d23f
00000740: c202 3448 f0cb be3f cf53 0f18 fe4d d53f
00000750: ffd0 23c3 9d15 c13f 6230 c7b5 0d61 a2bf
00000760: 25be 4db5 6ce1 df3f 4743 1fcb 01cb e13f
00000770: be69 94af d851 94bf ee39 99b9 531d d53f
00000780: ffda 181c 642d db3f 8a3d 52f4 a8ae afbf
00000790: b2b4 5153 9607 d0bf 98ad 06d3 5726 d63f
000007a0: fb18 333d dc91 df3f 239a f160 ab7a d13f
000007b0: 9048 41b2 9e65 99bf c44e c8a6 ba1f cfbf
000007c0: 02df e8ed 2406 c4bf 0344 1309 7f5f e33f
000007d0: 9c5f 6f5f c57e a6bf 81ff 4b19 8bea c83f
000007e0: 05aa 9972 f39d bdbf 4b25 11f9 6cea b13f
000007f0: 201b 36df eafe bc3f 3643 aa09 97c1 bcbf
0.04728694151929674 0.06293999620480545 -0.03062613172748161 -0.0612931896515416 0.0975366488704928 -0.008748329326219917 0.10207296493814795 0.1256519802380061
0.059176286515800584 -0.09886648988958767 -0.1379986443883131 -0.4907814867302947 -0.4242030819311191 -0.7740527862328993 -0.6592039234948498 -0.19660373472598675
-0.224228403647775 -0.4793349568118932 -0.05688333188190366 0.03070092234424403 0.08037195940600435 -0.04390627639627116 0.09923128054462957 -0.04903697281705681
-0.017807935111017116 -0.06259764184611698 -0.060493169515021865 -0.0165157199412177 0.06176349838483497 0.08479514748655555 0.049410741576955075 -0.009568653992018127
0.026080621674823508 0.0041841592779004 0.04111821709665298 0.15238830248648505 -0.03816429718860299 -0.21710065596881511 -0.1862839891497735 -0.35771964587832794
-0.041825825670482104 -0.3620353817979007 -0.5224108937457532 -0.17901170836341446 -0.39410792588991833 -0.708835036837702 -0.3714543280393024 -0.16746811378011625
0.269804041128309 0.28642886423171793 -0.11900291638883671 0.04488313091730675 -0.08247983125433904 -0.09418646218764333 0.006783276170154216 -0.08215426313532746
-0.021224076252569526 0.009574871119650982 -0.02224942799831752 -0.0162455083236502 0.00547422237122337 0.04959421544439459 1.412828595968221e-05 0.23920541109328095
0.48362012918755365 0.22612055308018264 0.5160225842905777 0.09396663727990674 -0.031117391069315974 -0.114154708003852 -0.7368707330505707 -0.29822934201535134
0.08140693182531446 0.274996154902342 0.4591831225419087 0.4996262250904098 0.5884091724096344 0.6429657198445091 0.4800796576914214 -0.04785037104111819
-0.08533209604511204 0.08580528475222438 0.06794646584155387 -0.04874498541274711 0.06189205227446401 -0.09671916142353867 0.07268802705650264 0.01159482561961713
-0.020007468961247075 0.10920050978720218 0.2132455371213634 0.7146201341282026 0.620235050287809 0.048271215030803984 -0.18174101664477352 0.04430605324280925
-0.08940011521245907 -0.10850719010192256 -0.052193110352790735 -0.28354139224718383 -0.2492792039923553 -0.15574688238660567 0.19157306950882075 0.6646882666426756
0.7053888765289141 0.7011597811544664 0.6029329674049907 0.523847326231434 0.12244103847396992 0.04095071474542418 -0.008205944239969001 0.09600539106901303
-0.011183978986944199 -0.01238859287569139 0.0026211795868472817 0.09704295201947499 0.011533861590261332 0.004569685109526423 0.4012615893755865 0.4355721944533811
0.010742951900063911 -0.1210147516933788 -0.22413624906885093 0.1157463293923351 -0.17355207697816813 -0.16106096796334365 0.0834493292946138 0.07266210860044572
-0.32660246171625773 -0.1649626616549557 0.2305575910199201 -0.10776285528953207 0.25647627611809853 0.6808968954786723 0.7289175210831637 0.5204737559695871
0.2655900925989541 0.19831890935922228 -0.054914399822346506 -0.05286624638243843 -0.0653701075686435 0.03665443714229627 0.03685396381205357 -0.028929412490857835
0.07688148082019225 0.0006892523918691581 -0.030379838862558305 0.2532196418612738 0.0846592984836282 -0.13881543713827987 0.13421221765561497 0.013003084097218755
0.18590014383416745 -0.19389216011754706 -0.2064124494495279 0.5068926902571369 -0.424621233118977 -0.21066148469972856 -0.1069923370288528 -0.002612468052449288
0.44832147451674287 0.6188077010499399 0.5256132413576002 0.20445375549353234 0.05835587016934033 0.3111887129286049 -0.007858311554323856 -0.11463944646785855
-0.00241682258362615 -0.009338319467955257 0.11634749209407358 -0.03209681731677732 -0.13152341306010662 -0.3112681510369852 -0.162144093181644 0.1859414854722994
0.11678364037728195 -0.10964883460315569 -0.1792356260618271 -0.24069936277413054 0.005603421049919865 -0.274609405945614 -0.018805820391712302 0.07828553799361455
-0.4258288820355142 -0.041892640022228256 0.006572158768465637 0.10516299549498173 0.22271926313687646 0.46390475068608916 0.10110862933251447 0.14610813564598585
0.14458955207937974 0.26895536327660935 -0.21781501731257072 -0.03630902083658221 -0.0804129583334731 0.10939233329862487 0.14617793099834128 -0.09646826031768171
-0.21668916158381968 -0.21722466753652286 -0.2614070822705401 0.29124860709541417 0.23912444675406952 0.2414556854742741 -0.08290467611134558 -0.19206968379314288
0.1277673679693128 0.2654037865125363 0.20841331480969516 0.6426280252766657 -0.16035223502605506 -0.1547623627874214 -0.15956642134545282 0.1897819751654156
0.23072265891876576 0.45750041071814496 -0.052829744646007065 0.1453901494958142 -0.1464931957921262 0.2874800379282617 0.15659440581681883 -0.04424940805476488
0.003540533168160874 -0.030491205961437735 0.08113607871053796 -0.15454684928253162 -0.1902820672345337 -0.34316580598795177 -0.25165135466131905 0.28450819415809897
0.12029935610554346 0.33288528775784426 0.13347217586818513 -0.03589670986147621 0.49813382821500546 0.5560311286190903 -0.019843469349419378 0.3299149811254257
0.42464545005661586 -0.06187942488133576 -0.25046308647763305 0.34609027488723987 0.4932776067402213 0.27311214892543684 -0.024801711683104133 -0.24315579551386268
-0.15643750778848903 0.6054072549105743 -0.04393593587855024 0.1946576951522694 -0.11569139049394302 0.06998330193268491 0.11326473187919506 -0.11232894884075226

biases_1 f8 [64]
00000000: 51d2 0ac3 32f7 0640 20b2 7ddb 9d42 c7bf
00000010: 4208 7195 bef7 e0bf 76ec e0b1 0fc5 e4bf
00000020: 5639 62de 0124 c73f 1e2c fdd9 88d4 bd3f
00000030: 7d62 f94d d929 f4bf a981 2fd1 2add d73f
00000040: d8dc 28bc 584d e63f e913 e992 8134 dfbf
00000050: 6275 159d e216 e13f 4f2b 493a 55c9 f23f
00000060: b8c8 2a87 4a65 04c0 5680 b6b0 b540 e7bf
00000070: 0170 e052 4017 d3bf b958 75e2 b9de fe3f
00000080: 6d7e 8092 98c9 dfbf 8197 79bb 278f c0bf
00000090: 5e57 8c78 c437 f03f 0fd0 079a 7b37 dd3f
000000a0: de29 11be a9f3 0140 8722 7f10 75a2 f1bf
000000b0: b6ee 334f e5b9 f13f c918 66dc 41b9 ee3f
000000c0: 3719 5c2a 6887 993f adea a252 771f f03f
000000d0: 889f 97c2 cb0e e83f 3313 7287 b344 0040
000000e0: f818 896a bb1e f8bf 0feb 5bcc bfa3 d1bf
000000f0: 45a0 0666 7387 b6bf 4000 eb16 5da8 f83f
00000100: 1d1c cb46 2536 fb3f b027 f540 84a9 f43f
00000110: 2da8 179e cef8 c33f e235 a5d6 619f fa3f
00000120: bb7c df18 c9fe 8fbf 7c7c 14b4 ac4d f13f
00000130: 96ee 6583 baf0 ef3f 3d3a 57d3 9474 e3bf
00000140: b518 9e8b 7aef 05c0 b503 5a10 498c fdbf
00000150: 7698 b63b 7dbe afbf 46de aaff 345b f7bf
00000160: fbf4 9f0c 00d7 a3bf 5244 4e3d 27dc fe3f
00000170: 4a8e b171 6d30 d93f 6de7 c7b8 7289 c2bf
00000180: 0e24 865f c98f 0040 e8b5 05b6 666f d2bf
00000190: a545 b85b 16fd 0240 806c 2d96 a443 f13f
000001a0: 9993 f9b2 4b40 f23f a10e 0f41 d0bf d1bf
000001b0: 5220 ca64 ba26 cbbf f981 1dee d935 e23f
000001c0: fc38 1b76 903f f3bf 675e c7ae 3287 e53f
000001d0: 51fb e963 8a05 e13f d457 cc9c ae33 f03f
000001e0: 8f40 9138 c1de 0040 ed6d 4dd7 1124 fa3f
000001f0: 8769 8c9a c3e3 f3bf a6c3 c9f3 bdd5 c3bf
2.8707022893598055 -0.18172047822317072 -0.5302422446041037 -0.6490553354445996 0.1807863555772637 0.11652427026744802 -1.2602170034280384 0.37287397793081795
0.696941726207025 -0.487579720942732 0.5340436046641737 1.1741535450734835 -2.5494585571223887 -0.7266491366790528 -0.29829414456776254 1.92937649212176
-0.49667944247082724 -0.12936875013400242 1.0136151036180858 0.4565114025310785 2.2439761017787836 -1.1021624225997202 1.1078847020971074 0.9601144127525681
0.024930598817286067 1.0076821544632069 0.7518061447744779 2.0335455495536734 -1.5075029527229713 -0.2756194587415601 -0.08800431481233868 1.5411044020875266
1.7007191434256648 1.29138589262082 0.15603049010616257 1.6639116653999442 -0.015622683593333844 1.08146353095779 0.9981358114595931 -0.6079811218022041
-2.74193295551512 -1.8467493666396255 -0.06200019220277479 -1.4597673403749396 -0.03874969629394261 1.928748359179981 0.3935807810105173 -0.14481958410743392
2.0702083075343642 -0.2880493905603019 2.3735778012857787 1.079014383917439 1.1406971923072204 -0.27733236649894805 -0.21211938783040069 0.5690736437500724
-1.2030186284569586 0.6727536595962648 0.5319263411946428 1.0126176953249244 2.108766977246041 1.633806077027539 -1.2431064641046718 -0.15496038821904995

weights_2 f8 [64, 64]
00000000: 20d5 1d6a 1b0b f43f cca6 2bb9 e63f d7bf
00000010: 9035 d9d1 e3c5 e7bf 2b09 0ab1 0f3a f7bf
00000020: 7dc1 e468 edb5 d6bf bcb2 4b2e efa0 c53f
00000030: e383 8260 50de f6bf 9b75 c527 a216 e03f
00000040: 4c92 d635 f001 d23f 0bc2 0163 ca3c eebf
00000050: d7ef fbe9 fea0 d63f 4eb7 a074 2f13 ea3f
00000060: d241 c223 0da9 f8bf baa9 7697 7315 ebbf
00000070: 8151 01c9 16f3 e1bf 352f 9957 39e5 ea3f
00000080: e5f3 34f5 d7fd e8bf 7e04 d44d 0f6d e3bf
00000090: fba6 93ac 0a17 ff3f 3875 c38c 83d9 c63f
000000a0: 5676 9573 96e5 e43f ca38 b2c3 babc f5bf
000000b0: 6556 635a dd5f f43f aba7 1de7 1ed4 f43f
000000c0: 233b c2d1 a34b cdbf af78 e1f7 650c fe3f
000000d0: dc59 27c6 9bef ecbf 4d0f 11fd 0488 e73f
000000e0: 7f7b df21 e8eb f7bf 411a c37b 506f bf3f
000000f0: a657 cdf8 92e2 ed3f c53f ac3b a2c0 f93f
00000100: 0892 b451 beb1 d53f 5196 b8db a92a ee3f
00000110: e469 b3fe 1c3b d63f 85eb e2af ff45 e93f
00000120: 0e9a 1908 5421 c1bf d238 2de0 2009 fc3f
00000130: b800 61c6 ce37 d13f e63b f19a feec fcbf
00000140: 6045 c520 b445 eebf 24da 4415 5fea b0bf
00000150: 15b1 1f46 846e ea3f 7e72 0ec1 4e76 d9bf
00000160: 8653 d23b 46ab f0bf 4dc8 23df e212 da3f
00000170: 8947 ec00 9dd8 a1bf 01b2 74a9 c70f d8bf
00000180: 3921 d1ca 602c c53f 3f91 1986 04b5 b4bf
00000190: e70c 828d 6de5 e33f 93c6 9b80 82e8 f33f
000001a0: e664 760d d76f e43f ec46 586d a47a b5bf
000001b0: 9079 5d2b 1689 d1bf 1bef ac74 aa4b d53f
000001c0: 6f34 75ee 303f e3bf 8f2b 26e3 c3be b73f
000001d0: 4de4 9d4a 8d9b ebbf cb5a b241 97ff ee3f
000001e0: 297d b6a5 103a f73f 849a e817 b9a1 f43f
000001f0: 0d62 d557 2ad8 f7bf d8bc fdeb 1bda f8bf
00000200: 2b24 7022 50f8 ef3f 67b0 484c 81c5 d7bf
00000210: c7e4 9bea e8da f0bf 060f ae68 09b0 e1bf
00000220: 5852 cf1c 4fe9 c5bf 950a ac06 e01c b13f
00000230: ee9d 03c8 3cee b63f 7676 36a8 2dac ebbf
00000240: a088 933e 4b27 f5bf 16a2 c4e8 8224 f23f
00000250: cbb7 6752 0f0d c53f 541f bb9d 9c6d cfbf
00000260: 2198 e1fc 7f35 f1bf 701f fcbf 766b f13f
00000270: eb48 c191 e13e abbf 53ee d2dc e688 d03f
00000280: 59b1 cc44 e50a e53f 1646 315c 3296 d9bf
00000290: c531 f80e a1eb eb3f 0b91 f066 4299 c53f
000002a0: cd9e afb3 9063 e93f 7e87 1c99 81f2 dc3f
000002b0: c9c4 ed00 3ee3 da3f 36a6 8d18 e3c4 ce3f
000002c0: b031 a5c3 12e7 e53f 624b c9c3 6720 ef3f
000002d0: b5c0 fb64 1021 d2bf b6af d60e 35cd e33f
000002e0: f7d2 4ccb 1060 803f 1b6d f747 606a da3f
000002f0: 0fce 52a4 5729 e93f ada4 8b8f 716c dd3f
00000300: 5f61 f6a5 9845 d53f 099d 31cf e153 e03f
00000310: a08e 41fd 8df8 b63f a5f9 fb45 d134 ebbf
00000320: 7ae7 ad07 72b2 d1bf fcb3 97b8 252a a63f
00000330: 292d 972f dfc1 d53f 4c69 287c b1c9 a73f
00000340: ea55 5c4d 8a5a f0bf 5a73 cc10 e2dd 963f
00000350: 5cf5 626a 5ef7 e5bf d4fc 8368 82b0 dcbf
00000360: 8caa cc90 3a4e fc3f 86cc 424f be92 db3f
00000370: c6df 40bc 69bc 8c3f cc87 eccd 4c38 d4bf
00000380: a0df 67ca c2c7 d3bf 9811 d6f7 b3f1 d63f
00000390: 9b5d 454b e12c ec3f 9884 8c23 336a dc3f
000003a0: 8c33 5fab 83db dc3f 0dc0 74a5 954b e83f
000003b0: 7366 cc1b a47d d23f f294 c8f3 8808 c2bf
000003c0: 2057 656a 02c1 e5bf 02f1 6ef4 62ed ea3f
000003d0: 10c3 3186 c587 fc3f 3c51 a9d8 fb40 dd3f
000003e0: f2d6 d2b6 e8a8 b7bf f27f 8b9d 5705 e73f
000003f0: aded 7f13 1b30 d8bf 7330 709a a9df e43f
00000400: 1965 3e44 d098 e63f d2c9 09f1 4ce5 cfbf
00000410: aa77 b66f 7c2a e2bf 46ac 61b8 776e dfbf
00000420: e5bf cae9 45b4 ca3f 9792 207a 0049 efbf
00000430: 694a fca1 1b4d bebf 1bb5 05de 3a5b c0bf
00000440: be8a 7bd3 d2e2 d0bf de94 93d0 908d ddbf
00000450: 67d0 cf8f 0601 f73f 3a9c 9cde 004c e0bf
00000460: 29df 0733 2d1a aa3f 5294 a93a 8077 e0bf
00000470: 5dcd 1880 577d c3bf d26e 347d b8db cc3f
00000480: 33ab f894 acda cb3f 5be0 42ec 5ea1 ce3f
00000490: a83f 1bd0 fd9c b93f 2176 1538 483f d4bf
000004a0: 763f 52f3 2249 eb3f 974c 8e5e f15f ba3f
000004b0: b856 e1aa a52b ca3f da98 a4b3 fa9a cc3f
000004c0: d49f 739f c3fc d03f dc27 64b9 d9e9 f43f
000004d0: b93f fb66 28c8 8abf 7e98 124d 6d32 f13f
000004e0: ba2e 5c4f 70bf b7bf b09a b7ca 3d2f c8bf
000004f0: 5434 566e 262d d6bf 119d 3654 d440 e63f
00000500: 243a dfe6 a916 e33f 5dac c835 6a6d d2bf
00000510: d21e 1a1a 5cd0 e03f 0b3f 094f 440d e0bf
00000520: a2cf ef19 6e1f d23f 25e0 8bb6 1ca1 e63f
00000530: 9438 946b 9350 e03f 7f8b 6903 5179 b63f
00000540: c6d1 c33d cf4b d9bf 059b 002b d45a e5bf
00000550: 1c2f 5c92 d97d af3f 5d10 62ec 90c0 debf
00000560: dadf 44c2 65dc b3bf 1cb2 f91b 3f19 d53f
00000570: b2cc 060b 52dd d53f 582b b684 97fc bf3f
00000580: 7355 626a fe1a c03f 2403 b27f 0d36 f33f
00000590: c92e 1e27 ace3 cabf 4e68 404f 145d d3bf
000005a0: 9c83 34f5 0965 c43f e499 6892 be8b e23f
000005b0: d13b c8e1 f05a cebf 3d21 b1c5 6c14 d4bf
000005c0: 26d8 bde7 65ba e2bf 4b2f defd d580 dc3f
000005d0: 99ac 9c61 a476 e33f b9e4 b77d 978c fa3f
000005e0: f33d 6008 7cb8 c7bf 5d12 3cda 9593 e23f
000005f0: 61d1 936b 0711 d6bf 1238 572d bc42 b43f
00000600: ec65 5577 c77a c73f 9a42 edf3 c508 c23f
00000610: fdd0 23b3 1770 d33f 7f50 fdad bba2 e2bf
00000620: 0d6d 9585 1b20 c83f 1efe dc98 3d7e e23f
00000630: 25ab fb38 8f55 91bf 60a0 852e ad83 a53f
00000640: 1f0d 71dc 7de5 edbf 6cda 75dd 3ca7 c4bf
00000650: f59d a752 bb3b d5bf 2f33 8d1e ba4e ef3f
00000660: beca d586 4cac f7bf 3797 d2b6 bda6 d03f
00000670: cc47 94ae 4cca d83f 10f4 93f7 9fcd eabf
00000680: 4c6a 6929 a3ed ca3f e21e 6815 29c5 e6bf
00000690: a9ba 3ba7 3d68 fc3f 655f e279 8a64 d0bf
000006a0: 46ed 4ff2 c55b d93f 396e 023b e5a9 e3bf
000006b0: 4308 c30b 3c64 cf3f ae77 c80b b385 da3f
000006c0: 0b8a 7a76 178a f33f 491a 0399 a943 f63f
000006d0: e98d 55b1 4ca8 f0bf 9c97 64de 1310 d63f
000006e0: fe0d 3bd2 ff59 e5bf 79b8 316d 8fa0 d73f
000006f0: 21f4 2e74 4dd6 f73f 148e 79fd a4eb e0bf
00000700: 1a61 0ff7 3dc0 b4bf 2d3a dce3 6bd4 ee3f
00000710: 2e96 0ab4 36ed f93f 1eb4 e18d 3f01 e1bf
00000720: 5631 56d5 4128 c83f 5cdc a1f3 112f e63f
00000730: 32b3 8d42 d7fc b2bf 5eb8 8487 dc4e 01c0
00000740: 7553 6e09 6107 d1bf c2eb 2f4a f37e be3f
00000750: 5c8a 6d37 89ce c2bf 2dcb 5974 ef46 e83f
00000760: ab34 1631 6acb cbbf 5f91 37ba d3d1 e1bf
00000770: 5d75 9336 aac9 943f 85b5 0d85 a033 c4bf
00000780: 92d4 c9c2 faf5 edbf 48ce 8c4c 7f59 b13f
00000790: c22a ed9d 188f c2bf 7967 fdaf a6df f43f
000007a0: 4c50 777f e6a0 b53f ef88 2d0a 283f da3f
000007b0: 0d61 a0ae ef1f e83f daca 504b 4d0f c73f
000007c0: 2190 6e14 e102 e2bf d535 7aab 9f8b f0bf
000007d0: e60b 0a1c 8946 dbbf 8f5e 8185 d07b b13f
000007e0: 7eba 8d95 4da1 c43f fa41 3bb6 6e99 dd3f
000007f0: d8ed 781e 1961 f0bf fb9f 8560 d95f e4bf
1.252711691396435 -0.3632752235704231 -0.7429064844706534 -1.4516751208871692 -0.35485396617425363 0.16897382507831604 -1.429275872222427 0.5027628685744959
0.2813683057559373 -0.9449207242706178 0.3535764012337927 0.8148419645201359 -1.5412722966030867 -0.8463685949584978 -0.5609239507562479 0.8404814444452088
-0.7809867657848569 -0.6070629615861802 1.9431254140167187 0.1785129964181722 0.6530258424279036 -1.3585765499479288 1.2734044581206032 1.3017872837030875
-0.22887084715008496 1.8780269320337017 -0.9042490835370773 0.7353539412219817 -1.4950944255030831 0.12279227277313344 0.9339079722801571 1.6095297175379397
0.33897359828031925 0.9427079478670725 0.3473579871476018 0.7897947726518032 -0.13382959743030692 1.752228618326218 0.26903123257580885 -1.8078599979814896
-0.9460087432909567 -0.06607622403394281 0.8259908074956309 -0.39784592488448556 -1.041815026929926 0.4074027232264868 -0.034855753290812315 -0.37596313045904145
0.16541681197328176 -0.08088711046145124 0.6217563403919514 1.2442650817651255 0.6386523497523313 -0.08390262288619582 -0.2739921020019205 0.33274327653974617
-0.6014637620334166 0.09275459571487786 -0.8627382714613617 0.9687000544680243 1.4516760323675248 1.2894831594400396 -1.4902747565266765 -1.5532492845921322
0.9990616486185265 -0.3714297528229111 -1.0534447826778874 -0.552738861515963 -0.17118252665263145 0.06684684908763423 0.08957271464497982 -0.8647678647427728
-1.3220932430636267 1.133913907289871 0.16446105502785566 -0.24553258611399065 -1.0755615118191673 1.0887362956436526 -0.05321411995159216 0.2583558231815221
0.6575800269834345 -0.3997922802273889 0.8725133221028548 0.1687396052012747 0.7934039601795689 0.4523014064053469 0.42011976328565176 0.24038351725475743
0.684457189674097 0.972705728907709 -0.2832680689016443 0.6187997140709658 0.00799573059485102 0.4127426817701278 0.7862966737215532 0.4597438718615859
0.33237281996982476 0.5102395102266267 0.08973014290819004 -0.8501974455719404 -0.2765164446824354 0.04329030874564663 0.3399579968215272 0.04646067276572072
-1.022104551496677 0.022330791735942192 -0.6864463880407743 -0.4482732792529991 1.7690988212804397 0.43083150616002575 0.014031244332826886 -0.3159362803436323
-0.3090674378031455 0.3585023803973626 0.8804785223136834 0.4439819190175256 0.4508980916551131 0.7592266303599914 0.28891852106753574 -0.14088546660892792
-0.6798107221645502 0.8414778493966255 1.783147358128364 0.45709129484500344 -0.09242109740702256 0.7194021298455466 -0.37793614296216554 0.6523025528308736
0.7061539967427591 -0.24918519753880602 -0.5676862890138541 -0.4911174107170989 0.2086264983713583 -0.9776613602922052 -0.11836407379841209 -0.1277841171353565
-0.2638442101726176 -0.46176548355863456 1.4377503984115039 -0.5092777583967127 0.050980961303081 -0.514587511611021 -0.15226262812357563 0.22545534242168813
0.21761090539924907 0.23929964576905402 0.10005174952243456 -0.31636243321358576 0.8526777984970824 0.10302647169582922 0.2044570049644585 0.22347959300640846
0.265427499498853 1.3070924035878226 -0.013077083246940778 1.074811268868444 -0.09276487290861271 -0.18894169233609182 -0.34650574469634887 0.6954137463370974
0.5965165623873117 -0.2879281544907764 0.5254345426373794 -0.5016194862055 0.2831683400429431 0.7071670117720755 0.5098359204437366 0.08778864224727377
-0.395252046887688 -0.6673374977006864 0.061507033458921806 -0.4805033024242727 -0.0775817488946581 0.3296659253308307 0.3416333301240214 0.12494799604443807
0.12582378572976047 1.2006964672184006 -0.21007301244787005 -0.30255611171162833 0.15933346245676894 0.5795586452048238 -0.23715029739875473 -0.31374663644648476
-0.5852536703303073 0.4453635195902634 0.6082326799854797 1.6593241606590665 -0.18531752022725775 0.5805157911677942 -0.34478936677557753 0.07914329630804698
0.1834344227489021 0.14089273844230804 0.30371658796435935 -0.5823648832542999 0.18847984335557336 0.5779102311716462 -0.016927945950480656 0.042020236901237906
-0.9342641168117644 -0.16135369122976628 -0.3317707354712803 0.978360232993145 -1.4795651690480294 0.2601770673157832 0.38734738396408086 -0.8376006923205086
0.21037711641368373 -0.7115674417591118 1.775449422125954 -0.2561365309024864 0.39622639334966825 -0.614489188435477 0.24524641584690884 0.414410363680754
1.221213782126713 1.3915191628490382 -1.0410887648694092 0.3447312995725669 -0.6672362428730023 0.36917482055185463 1.4898199594893031 -0.528765196865097
-0.08105838090648768 0.9634303522487407 1.6204134972443955 -0.5314023753286425 0.18872855107145864 0.6932458647196529 -0.07417054533807457 -2.163506563890265
-0.2660753814791897 0.11912460862360688 -0.1469279785770422 0.7586591026759827 -0.21714522740186246 -0.556863654809188 0.020300540524535438 -0.15782553192859097
-0.9362767986737188 0.06777186983964001 -0.14499194823505063 1.304602324924842 0.08448639499630523 0.4101047610657948 0.7538984690354781 0.18015447785872746
-0.5628514670429504 -1.0340878198943433 -0.4261801503964179 0.06829550990493714 0.16117257883475483 0.4624897746662381 -1.0237055960013688 -0.6367003331370137

biases_2 f8 [64]
00000000: a4fa 8180 862f 48bf ae7f 750a 8483 c43f
00000010: 7276 f2d6 74e3 c53f 02fc 5d7e d386 ae3f
00000020: 1126 baee 9116 a83f 3454 4f84 553f d13f
00000030: 15b5 e778 c7bc ce3f a6b0 bb3e 9a98 a0bf
00000040: 888c 0822 b221 c83f 6ab6 45a9 7d84 d33f
00000050: 5e34 029d 3f4f bd3f daac 6301 b1cc c53f
00000060: 7b57 b322 1106 d43f 4cc6 97eb 8923 a73f
00000070: add9 acd1 920e d13f 667c 2257 e917 d53f
00000080: b40e a9cf 78c3 c13f 3ebc ea18 a38e b43f
00000090: a6ae 9289 e31e d03f 4d52 8665 ffe6 d23f
000000a0: 1801 1a78 be66 c23f 8c78 914a 6c9a c33f
000000b0: 1d61 5307 d5bd c6bf d4d3 912b 768a ca3f
000000c0: b603 10e5 edb3 d03f bf05 a42f 40ce d53f
000000d0: fd03 bb42 442b b13f 489a 17f4 42a6 9d3f
000000e0: f120 ff56 197a c33f 2604 925a 6a65 d23f
000000f0: f2a6 9fee ddb4 c83f 5868 7781 2bbb c83f
00000100: 3104 fc37 711c ac3f 1a6e 7cd3 1dfa b1bf
00000110: be1c 9db0 23a6 c83f 1f4b 12d8 67d4 a9bf
00000120: ea78 5a39 f911 a4bf a119 3bc9 4b75 98bf
00000130: f126 677a a5d9 ce3f f111 8093 2641 b73f
00000140: 0885 4f39 6d72 c73f 5887 eba6 ea1c d03f
00000150: 6be2 7ece e9f8 c53f c4ef 3680 5305 c53f
00000160: 642b 1be7 33f2 d33f 1a94 c682 be2e 9a3f
00000170: fbcf 35bb 9f0d b33f f557 c537 7541 d23f
00000180: 8bf3 ce35 63fd cc3f f2fe 3848 0dd1 ba3f
00000190: b5e2 f2a1 04d0 b53f 2644 181d 44c5 c23f
000001a0: dc73 459b 65c0 d13f cad5 12f9 c20b cd3f
000001b0: 48ff 0f47 fb81 a3bf 1987 86cc 5efa d63f
000001c0: 17e5 8514 590e cc3f f472 ef1e 0121 d13f
000001d0: eae4 0f0e fab8 c93f 10b1 be6c 53b4 b33f
000001e0: 069c a591 b9c8 d13f cd66 c255 42d3 be3f
000001f0: 7ace 9b79 0127 b83f 07b4 4984 8c87 d43f
-0.0007380873439755864 0.16026354323093756 0.17100391860451541 0.05962239186828101 0.04704719580793094 0.2694906036461504 0.2401360836369483 -0.032414264829499204
0.18852831517969926 0.3049616005945156 0.11449048598497444 0.1703091866287199 0.31287029637075364 0.04519301415338059 0.26651449657529264 0.32958444127320374
0.13877782954852125 0.08030146940539937 0.2518853038297756 0.29534897722740966 0.14376049866042062 0.15315011635806675 -0.17766821725559448 0.20735051276611094
0.26098201150312705 0.3407135453454337 0.06706644658244439 0.02895454993076843 0.15216366527443584 0.28743990750087034 0.19301962043328263 0.1932119733963329
0.05490449722675129 -0.0702227250407578 0.1925701725360564 -0.05044865143385934 -0.03919962716212118 -0.023884948880345317 0.24101704098421053 0.09083787060814764
0.18317952440614982 0.2517649297789055 0.17165873129649198 0.16422504196623156 0.31165788239439096 0.025568939906993028 0.07442663498460426 0.28524523207067826
0.22648277404178105 0.10475237859008837 0.08520535425021587 0.14664508267063175 0.2773679748841553 0.22692143594546926 -0.03810105555021309 0.3590313908881498
0.21918786527729914 0.26763942738561686 0.2009575432455571 0.07697030453590892 0.27787627433139084 0.12041105836615458 0.09434518069229539 0.32077324789753486

weights_3 f8 [10, 64]
00000000: 517c cff5 61d4 d4bf d173 1713 685a d93f
00000010: 45d9 5ece 43f1 c3bf 376c 8c8c 8ee3 d8bf
00000020: 8cc9 cf38 3bff 86bf 60eb 91df 2359 ccbf
00000030: 640d 66e0 1c17 eabf e8a7 69a0 bca0 dd3f
00000040: 3c25 962e 8bd1 de3f 4e02 8435 593f 963f
00000050: 9859 6232 1e4a e93f ac67 188f 951f e9bf
00000060: 6444 aa0b a9ca d7bf 2f4a f898 e42d e8bf
00000070: 21b1 c311 f781 e0bf ceaa bec6 1a90 b93f
00000080: de26 e9f4 a7ba a43f 0cf7 167b bc31 04c0
00000090: 215b 1d9d 5acd c1bf 14c5 6e15 4007 f03f
000000a0: 7e3c e567 a8db f1bf b82e 6491 328d f1bf
000000b0: b72b 11d8 0ada fabf 8cda 5721 2232 d03f
000000c0: 1818 dc77 b28e c5bf 2851 ec00 e3d4 f03f
000000d0: 12a7 fadc 35b1 bc3f 1da7 b4a5 b331 81bf
000000e0: 6078 ebec 3a6b 03c0 fc77 fce0 8ee2 b6bf
000000f0: faf0 a59f e9ce dbbf ec10 0d02 f8f8 eebf
00000100: fe70 1922 8d58 dc3f ce49 c1e1 5202 c7bf
00000110: 109c afb3 2be4 c03f 37d7 099b 3ec1 e33f
00000120: 91aa 57a6 6002 e23f 4a92 162f 49e8 ecbf
00000130: 0dc5 9af1 675c a73f 0c31 ea78 e45c c0bf
00000140: 69e1 da2a 4de0 853f 1ba9 a5e3 1a90 fd3f
00000150: 36bb 7c00 0b83 f2bf 83f5 d75d 005e f83f
00000160: 8163 247a 3612 e73f 9c33 6278 222c e5bf
00000170: ff2d 97bf 2610 ed3f e6aa 1e22 3d93 df3f
00000180: 1ccd ecb9 223a 95bf 984f 53b8 fe89 f0bf
00000190: 1805 e8b3 5384 b9bf 5de1 e9b6 388c efbf
000001a0: 6985 367d f793 eebf 3356 439a 87ad dfbf
000001b0: befa 6347 fd67 0240 7ad4 b396 4fb0 df3f
000001c0: e138 edb0 e742 eebf 3e92 f33b 025c febf
000001d0: d421 981c 8122 fabf 6658 079e 9898 eebf
000001e0: a14e c52b c44c b5bf 248e 9f5a 69d8 ecbf
000001f0: 611a 734f 52cf f23f fb37 60df de82 d33f
00000200: 2f6c 966c 139c d43f 9fea a46f cffd dd3f
00000210: cac2 952c aaec da3f e62d 6bf3 a3e1 e8bf
00000220: 301d 18b3 81d9 c0bf e38c a3ce f0df 82bf
00000230: f062 5b11 0183 e43f d866 7169 2b0b c9bf
00000240: 6181 60fe 73f8 d7bf 3d54 c5b7 909c e6bf
00000250: 3f16 c8ea bb59 f2bf fa14 c582 ef80 e1bf
00000260: f83f e3dd 2f02 d23f 2a1e 0733 1108 f2bf
00000270: 3cb7 595c c1b0 c03f ee56 1d33 d1ff cf3f
00000280: 58e9 da6e d56f c6bf 1ec7 ce67 2c2a 0640
00000290: a46b 8c20 540d edbf eb3e 23bd 90a4 e13f
000002a0: bfea 81ad f458 f8bf 4a52 4630 b435 e53f
000002b0: b42c 39fa 73ab c1bf 1491 8b7e 40cb e73f
000002c0: 4392 e4f5 d6d2 ab3f fae0 8b9e 247f fabf
000002d0: 2bd7 a192 398b c13f 8628 1997 ecb2 e5bf
000002e0: 1945 029d a385 cebf 2178 3cd3 fd78 e03f
000002f0: 6312 f008 a8c2 f13f 0590 a7d3 b527 f23f
00000300: 4b5a 987a bf0b bcbf 7ceb bc87 111e fb3f
00000310: 007f b77a 7c25 e7bf 333a fb3f dbb1 f03f
00000320: 20f8 2116 2a9c cfbf bb8a df1d cf5a ddbf
00000330: fcf3 9a30 1649 debf 56c0 2ea0 dd1f d73f
00000340: 13aa ad90 1460 e9bf 265d 0fa7 dc1b f7bf
00000350: 183b 49a2 c4c3 04c0 dca7 c799 cde1 c13f
00000360: 4800 8882 4abd 01c0 4003 b5b6 201c cdbf
00000370: dc36 25da 6ab4 e73f a1e2 e017 4678 c0bf
00000380: 6a41 9b70 df61 d2bf 58d0 fcbd c441 e3bf
00000390: aaa9 293f 9119 c93f e914 9390 40a6 ea3f
000003a0: 793a d259 1f74 84bf 321f 2af6 fd26 c3bf
000003b0: b0ef e3d6 a77b df3f fa4d d4c3 5c18 f8bf
000003c0: 49fc f8df c0fe da3f 6e1b a98c 57f2 dcbf
000003d0: a8ac 3059 f969 d1bf ef54 6da6 0111 e53f
000003e0: c4df fe3a 5df0 dabf 83ab 754f e75e 00c0
000003f0: 9272 8ad7 c4ea ce3f e69c 3f44 2abc debf
00000400: e99a 18cf b468 fa3f 520d 9e02 9d0a 64bf
00000410: 2860 ef60 ccff ccbf 06bf 27e4 5fcf ea3f
00000420: efd2 e2de 5c63 ea3f bfbb 0414 645a c6bf
00000430: 7ece bafe ad48 c3bf 0197 3878 0951 993f
00000440: 7777 f07d 5506 e2bf a2e0 5c44 4f53 debf
00000450: 824f bcba 2a56 ffbf cd22 0772 e2e5 f1bf
00000460: 5a15 686a a5f9 cc3f 8410 6c8c 614d f1bf
00000470: 2e76 cfef 1c52 dbbf 7565 c9f1 eb70 c3bf
00000480: 7869 3ad4 89d4 8abf 3917 80fa 8a46 f9bf
00000490: 918d 92c5 cd75 d4bf 49de f2ca 0b2b e7bf
000004a0: f24a 247e 6bbb f4bf 573f 9c2a 4ff3 e7bf
000004b0: 49f8 3646 122a f93f 32f7 6c24 0a52 f8bf
000004c0: ba10 7fc7 a2b3 bebf a14c 6691 a7b7 febf
000004d0: 5ae3 3d59 2243 de3f de75 dc4d 4d81 d23f
000004e0: 5785 43de 0491 e0bf b74a a234 d0e0 b33f
000004f0: e142 7049 c6ff f13f 5f77 b523 6bb9 e73f
00000500: d703 19a0 40eb eb3f dfad 6d2e c60f f9bf
00000510: e4a6 231e 7da0 adbf 90d1 4505 363d f23f
00000520: a5c0 1e4d b351 d5bf 5363 86a7 da9e e7bf
00000530: 281b 7ea9 19dc ce3f d6ff 5a51 3c89 b8bf
00000540: 81dd 5b1c c164 e5bf 4df5 0f1b c33f fcbf
00000550: 1d53 bb6b 9978 f03f 937f 8633 b497 aa3f
00000560: fed4 91a9 d570 c4bf db01 71e9 4290 ecbf
00000570: 3960 ccca 673c b03f 9ab0 9728 db28 e0bf
00000580: c9ab 6a2d 67f0 c6bf fe00 e938 c606 ac3f
00000590: 8867 3840 4200 e2bf 479c 046b fe89 d13f
000005a0: 0a60 2226 aae7 e7bf 9bd0 51c6 f571 bdbf
000005b0: 3071 1630 c167 06c0 7d00 8813 014a f3bf
000005c0: 2f26 6ffd 2869 efbf 881b cc88 ef72 fabf
000005d0: 43e3 ab04 235b fb3f 730a b941 163f dd3f
000005e0: f1c5 f8ee c901 d7bf 291a 92ba dc1d f43f
000005f0: 0bc5 06b9 6c44 0740 d47d a2d8 4487 ebbf
00000600: 0f72 e109 bad4 b13f 12b4 2c6a cca9 e23f
00000610: 3a02 6b18 2a2d ec3f e4dc 95b8 7ffe f1bf
00000620: d329 c26d dc66 d23f 98e3 038c 7e58 dbbf
00000630: f853 4a9d 7111 fd3f 0dab c0bc db01 d93f
00000640: ee41 c62d f102 d4bf a258 bd2c fc84 e6bf
00000650: 482e f143 f4c6 dc3f 05e7 6c34 a237 e0bf
00000660: 1aab 74b8 78ce e0bf 664d de5f db41 ee3f
00000670: 1b54 d99b 86ad e2bf ec5e 83e6 035c ffbf
00000680: 1a5e 2fa4 3d16 cabf f1e1 5756 4383 06c0
00000690: ab56 9bd4 a833 d8bf 311c 8fb2 dbeb f8bf
000006a0: 9147 8719 3c2e c13f 7cd8 d117 5a82 01c0
000006b0: 01bf d01d 0979 e0bf 0a34 f738 96df e73f
000006c0: 618f cea3 c637 eabf 6597 c90a 947a e23f
000006d0: f54d 6ea9 d0b6 773f e06a 622c 815c f3bf
000006e0: 1838 a63d 0da9 ea3f b184 328f 8825 b73f
000006f0: c998 e697 561a d83f e4bc 0059 4a7b e4bf
00000700: 7a3f 3a8d 1d72 e63f d4c0 aaf4 3c3d f03f
00000710: 31c6 5e3d f35f e0bf 6f70 d2d6 c07b fcbf
00000720: f700 9efe 4070 04c0 7789 0ec5 358f debf
00000730: 1d2c 9658 b4a6 d3bf b9b7 c162 01ce ba3f
00000740: 7262 609d 68c9 ee3f 27e8 76d6 b473 e03f
00000750: 00e9 b7c3 be9b f13f 1192 d7ae 5388 f2bf
00000760: b365 1842 475c fa3f 015e e041 0914 00c0
00000770: 7d67 fd54 b69a f4bf f44f bc44 b8bd debf
00000780: 290d 0cd2 28b6 e8bf 4eb3 9739 0c00 bfbf
00000790: 98ad c695 82af e23f b1a7 cada ae81 c93f
000007a0: c0ea 6a04 80b4 e2bf 7d04 0f33 4538 ebbf
000007b0: aae7 4305 287c f13f ef31 36a5 40c6 e23f
000007c0: c4bc 5d4a fbcd e53f 14ca fc1c 5eac fa3f
000007d0: 7172 f42a 2a58 f3bf b6ab 472f 7d8d f83f
000007e0: e713 e3f8 f780 e9bf bf07 d447 f939 98bf
000007f0: fd7d dd31 0c30 d03f f286 0e8a c0eb dfbf
-0.3254628086560319 0.39614297737517484 -0.15580031944927888 -0.3888889668029977 -0.011229002639059592 -0.22147034088615225 -0.8153213866029714 0.4629355970888569
0.4815395312258095 0.021726030246102028 0.7902976020875938 -0.7851054949598981 -0.37174440516634477 -0.7556021678631789 -0.5158648821793897 0.09985511161964242
0.040486572882014946 -2.5242852798827524 -0.13907940551390488 1.0017700993742595 -1.1161274012008842 -1.0969720534657608 -1.678232997905736 0.2530598950974443
-0.1684172711613321 1.0519743000086894 0.11207901616094443 -0.008395579809604531 -2.427358485160809 -0.08939450257136622 -0.434503942400411 -0.9678916969355931
0.44290474252717604 -0.17975841544337218 0.13196321748475315 0.6173394229979071 0.5627902268291384 -0.9033552093210997 0.04562687706255462 -0.12783485321086407
0.010681727285700675 1.8476818935838029 -1.1569929141075597 1.5229495683446153 0.7209732423390137 -0.6616375304453075 0.9082216016772121 0.4933617432786107
-0.02072958240314647 -1.0336901855671154 -0.09967539922947244 -0.9858668873339799 -0.9555623479429133 -0.49496641220807475 2.3007760598551092 0.4951361629203529
-0.9456671195601097 -1.8974630681851887 -1.6334239117587588 -0.9561274610994246 -0.08320261067029346 -0.9014174242005919 1.1756156066418486 0.3048627072720362
0.3220261154580752 0.4686163511538925 0.4206948695564675 -0.7775439981718903 -0.13163777584871061 -0.009216195398443044 0.6409917201045499 -0.1956533684595374
-0.3745393737936152 -0.7066119756006014 -1.1469077273517454 -0.5469892076586398 0.281383482634737 -1.1269695275567622 0.13039414414691375 0.24999442096548513
-0.17528789437148862 2.7705925092676713 -0.9078770290101272 0.5513385480971612 -1.5217177178989656 0.6628056471695996 -0.1380448314469952 0.7435610267243953
0.05434295417424952 -1.6560407822817624 0.1370613065698135 -0.6780913306368042 -0.23845334211777283 0.5147694707591236 1.1100235318309835 1.134694887900879
-0.1095542597107421 1.694840936876715 -0.7233259579479352 1.0434219836494207 -0.24695325928399914 -0.45866754452996944 -0.4732108568821898 0.36131992953142367
-0.79297855622764 -1.4443022275716628 -2.5955898932073858 0.13970346459183147 -2.2174272725824586 -0.2274208919643801 0.7407736073161817 -0.12867046514454208
-0.2872236823723343 -0.6017783842749038 0.19609275421255506 0.8327944587441866 -0.009987111023545868 -0.14962744254830224 0.4919223402537183 -1.505947842558156
0.42179891464542557 -0.4522913812292505 -0.272093140697232 0.6583259821442463 -0.4209206653717923 -2.0463396270546936 0.24153957867101333 -0.48023468651667967
1.6505630578700965 -0.0024464670759144847 -0.22655634625584864 0.8378142791898149 0.8246292451136393 -0.1746335122820408 -0.1506555074498585 0.024723194086752723
-0.5632731876137161 -0.47383481670432037 -1.9585368437155641 -1.1186241583074434 0.22636859603532394 -1.0813918576468788 -0.4268867818735512 -0.15188359552375244
-0.01310069731635076 -1.5797223839922039 -0.3196901730936697 -0.7240046466676598 -1.2957568099415622 -0.7484508354409439 1.572771333957933 -1.520029203689273
-0.11992852564350445 -1.9198375396415843 0.47284754481329616 0.2891419659007094 -0.5177025166596348 0.07764912877091033 1.1249449604694564 0.741384095901349
0.872467339220857 -1.5663511098490444 -0.05786505692397073 1.1399440961805318 -0.33311159640562443 -0.7381413719150295 0.24109192634588195 -0.0958440493222946
-0.668549113644005 -1.7655669266817597 1.0294431885024047 0.05193865899059271 -0.15969343929069874 -0.8926100310709971 0.06342171383983065 -0.5049873154471414
-0.17921151845561514 0.05473918385223618 -0.5625315908721271 0.27404747439363003 -0.7470293755350224 -0.1150201424769101 -2.8006614453171537 -1.2055674326839203
-0.9815869283567674 -1.6530604690212574 1.7097501928785312 0.45697552126163216 -0.35948417985045383 1.2572905815046715 2.9084104972067784 -0.8602623206278914
0.06965220204569554 0.5832273553584193 0.8805132367052189 -1.12463352302239 0.2875281402454252 -0.4272762648902755 1.8167587417749456 0.39073842461464
-0.31267957182083606 -0.7037335275479288 0.44964319834682387 -0.5067912124570461 -0.5252040484095659 0.945539176218898 -0.5836823505329706 -1.9599646572514144
-0.20380373494002485 -2.8140932794160496 -0.3781530452955432 -1.5575825667344925 0.1342234730387273 -2.188648401347619 -0.514774854882461 0.7460433113679994
-0.8193085860589059 0.5774631701176359 0.005789580426511777 -1.2100841268317524 0.833136196526314 0.09041646476773015 0.37660755952891783 -0.6400501001679939
0.7014301069593636 1.0149507100396038 -0.5117126654278704 -1.7802132026181672 -2.5548114673584865 -0.4774908470518748 -0.30704983378444856 0.10470589314510804
0.9620860170135315 0.5141243160971997 1.1005237241029704 -1.1582829313057383 1.6475288946006514 -2.009783281955379 -1.2877715415874882 -0.480329577564816
-0.772236261604495 -0.12109447866505471 0.5839245724977671 0.19927011187729485 -0.5845336996347541 -0.8506189343680856 1.0928116040872546 0.5867007471838955
0.6813942387069791 1.66708194087244 -1.2090245893406542 1.5345432135461414 -0.7969932423662812 -0.023658652314231917 0.2529325949635391 -0.4987641666613022

biases_3 f8 [10]
00000000: 3280 bd03 d50b d9bf 0707 22d8 95cd c0bf
00000010: a938 553e 1c3d dcbf 8c7a 9c8f 1657 e4bf
00000020: 3437 da39 d5c1 e8bf 62e8 dad7 fa37 e3bf
00000030: 5ca9 7716 0970 e9bf 65ed e6d4 3eeb e0bf
00000040: 84ba 22ea ebf2 d7bf e43b a387 5232 d5bf
-0.3913471733594661 -0.1312739663445017 -0.44122987830349786 -0.6356308751017692 -0.7736612443856985 -0.6005834785385213 -0.7949262083832696 -0.5287164839022976
-0.37420175423441315 -0.33119643445837554
